node {
  name: "global_step/Initializer/zeros/shape_as_tensor"
  op: "Const"
  attr {
    key: "_class"
    value {
      list {
        s: "loc:@global_step"
      }
    }
  }
  attr {
    key: "_output_shapes"
    value {
      list {
        shape {
          dim {
          }
        }
      }
    }
  }
  attr {
    key: "dtype"
    value {
      type: DT_INT32
    }
  }
  attr {
    key: "value"
    value {
      tensor {
        dtype: DT_INT32
        tensor_shape {
          dim {
          }
        }
      }
    }
  }
}
node {
  name: "global_step/Initializer/zeros/Const"
  op: "Const"
  attr {
    key: "_class"
    value {
      list {
        s: "loc:@global_step"
      }
    }
  }
  attr {
    key: "_output_shapes"
    value {
      list {
        shape {
        }
      }
    }
  }
  attr {
    key: "dtype"
    value {
      type: DT_INT64
    }
  }
  attr {
    key: "value"
    value {
      tensor {
        dtype: DT_INT64
        tensor_shape {
        }
        int64_val: 0
      }
    }
  }
}
node {
  name: "global_step/Initializer/zeros"
  op: "Fill"
  input: "global_step/Initializer/zeros/shape_as_tensor"
  input: "global_step/Initializer/zeros/Const"
  attr {
    key: "T"
    value {
      type: DT_INT64
    }
  }
  attr {
    key: "_class"
    value {
      list {
        s: "loc:@global_step"
      }
    }
  }
  attr {
    key: "_output_shapes"
    value {
      list {
        shape {
        }
      }
    }
  }
  attr {
    key: "index_type"
    value {
      type: DT_INT32
    }
  }
}
node {
  name: "global_step"
  op: "VariableV2"
  attr {
    key: "_class"
    value {
      list {
        s: "loc:@global_step"
      }
    }
  }
  attr {
    key: "_output_shapes"
    value {
      list {
        shape {
        }
      }
    }
  }
  attr {
    key: "container"
    value {
      s: ""
    }
  }
  attr {
    key: "dtype"
    value {
      type: DT_INT64
    }
  }
  attr {
    key: "shape"
    value {
      shape {
      }
    }
  }
  attr {
    key: "shared_name"
    value {
      s: ""
    }
  }
}
node {
  name: "global_step/Assign"
  op: "Assign"
  input: "global_step"
  input: "global_step/Initializer/zeros"
  attr {
    key: "T"
    value {
      type: DT_INT64
    }
  }
  attr {
    key: "_class"
    value {
      list {
        s: "loc:@global_step"
      }
    }
  }
  attr {
    key: "_output_shapes"
    value {
      list {
        shape {
        }
      }
    }
  }
  attr {
    key: "use_locking"
    value {
      b: true
    }
  }
  attr {
    key: "validate_shape"
    value {
      b: true
    }
  }
}
node {
  name: "global_step/read"
  op: "Identity"
  input: "global_step"
  attr {
    key: "T"
    value {
      type: DT_INT64
    }
  }
  attr {
    key: "_class"
    value {
      list {
        s: "loc:@global_step"
      }
    }
  }
  attr {
    key: "_output_shapes"
    value {
      list {
        shape {
        }
      }
    }
  }
}
node {
  name: "global_step/IsVariableInitialized"
  op: "IsVariableInitialized"
  input: "global_step"
  attr {
    key: "_class"
    value {
      list {
        s: "loc:@global_step"
      }
    }
  }
  attr {
    key: "_output_shapes"
    value {
      list {
        shape {
        }
      }
    }
  }
  attr {
    key: "dtype"
    value {
      type: DT_INT64
    }
  }
}
node {
  name: "global_step/cond/Switch"
  op: "Switch"
  input: "global_step/IsVariableInitialized"
  input: "global_step/IsVariableInitialized"
  attr {
    key: "T"
    value {
      type: DT_BOOL
    }
  }
  attr {
    key: "_output_shapes"
    value {
      list {
        shape {
        }
        shape {
        }
      }
    }
  }
}
node {
  name: "global_step/cond/switch_t"
  op: "Identity"
  input: "global_step/cond/Switch:1"
  attr {
    key: "T"
    value {
      type: DT_BOOL
    }
  }
  attr {
    key: "_output_shapes"
    value {
      list {
        shape {
        }
      }
    }
  }
}
node {
  name: "global_step/cond/switch_f"
  op: "Identity"
  input: "global_step/cond/Switch"
  attr {
    key: "T"
    value {
      type: DT_BOOL
    }
  }
  attr {
    key: "_output_shapes"
    value {
      list {
        shape {
        }
      }
    }
  }
}
node {
  name: "global_step/cond/pred_id"
  op: "Identity"
  input: "global_step/IsVariableInitialized"
  attr {
    key: "T"
    value {
      type: DT_BOOL
    }
  }
  attr {
    key: "_output_shapes"
    value {
      list {
        shape {
        }
      }
    }
  }
}
node {
  name: "global_step/cond/read"
  op: "Identity"
  input: "global_step/cond/read/Switch:1"
  attr {
    key: "T"
    value {
      type: DT_INT64
    }
  }
  attr {
    key: "_output_shapes"
    value {
      list {
        shape {
        }
      }
    }
  }
}
node {
  name: "global_step/cond/read/Switch"
  op: "RefSwitch"
  input: "global_step"
  input: "global_step/cond/pred_id"
  attr {
    key: "T"
    value {
      type: DT_INT64
    }
  }
  attr {
    key: "_class"
    value {
      list {
        s: "loc:@global_step"
      }
    }
  }
  attr {
    key: "_output_shapes"
    value {
      list {
        shape {
        }
        shape {
        }
      }
    }
  }
}
node {
  name: "global_step/cond/Switch_1"
  op: "Switch"
  input: "global_step/Initializer/zeros"
  input: "global_step/cond/pred_id"
  attr {
    key: "T"
    value {
      type: DT_INT64
    }
  }
  attr {
    key: "_class"
    value {
      list {
        s: "loc:@global_step"
      }
    }
  }
  attr {
    key: "_output_shapes"
    value {
      list {
        shape {
        }
        shape {
        }
      }
    }
  }
}
node {
  name: "global_step/cond/Merge"
  op: "Merge"
  input: "global_step/cond/Switch_1"
  input: "global_step/cond/read"
  attr {
    key: "N"
    value {
      i: 2
    }
  }
  attr {
    key: "T"
    value {
      type: DT_INT64
    }
  }
  attr {
    key: "_output_shapes"
    value {
      list {
        shape {
        }
        shape {
        }
      }
    }
  }
}
node {
  name: "global_step/add/y"
  op: "Const"
  attr {
    key: "_output_shapes"
    value {
      list {
        shape {
        }
      }
    }
  }
  attr {
    key: "dtype"
    value {
      type: DT_INT64
    }
  }
  attr {
    key: "value"
    value {
      tensor {
        dtype: DT_INT64
        tensor_shape {
        }
        int64_val: 0
      }
    }
  }
}
node {
  name: "global_step/add"
  op: "Add"
  input: "global_step/cond/Merge"
  input: "global_step/add/y"
  attr {
    key: "T"
    value {
      type: DT_INT64
    }
  }
  attr {
    key: "_output_shapes"
    value {
      list {
        shape {
        }
      }
    }
  }
}
node {
  name: "tensors/component_0"
  op: "Const"
  device: "/device:CPU:0"
  attr {
    key: "_output_shapes"
    value {
      list {
        shape {
          dim {
            size: 4423
          }
        }
      }
    }
  }
  attr {
    key: "dtype"
    value {
      type: DT_STRING
    }
  }
  attr {
    key: "value"
    value {
      tensor {
        dtype: DT_STRING
        tensor_shape {
          dim {
            size: 4423
          }
        }
        string_val: ""
        string_val: ""
        string_val: ""
        string_val: "GET /main/search HTTP/1.0\n\n"
        string_val: ""
        string_val: "…"
        string_val: ""
        string_val: ""
        string_val: ""
        string_val: ""
        string_val: ""
        string_val: ""
        string_val: ""
        string_val: "GET /list/wp-content HTTP/1.0\n\n"
        string_val: ""
        string_val: "…"
        string_val: ""
        string_val: "…"
        string_val: ""
        string_val: ""
        string_val: ""
        string_val: ""
        string_val: ""
        string_val: ""
        string_val: ""
        string_val: "GET /main HTTP/1.0\n\n"
        string_val: ""
        string_val: "…"
        string_val: ""
        string_val: "…"
        string_val: ""
        string_val: ""
        string_val: ""
        string_val: ""
        string_val: ""
        string_val: ""
        string_val: ""
        string_val: "GET /list/wp-content HTTP/1.0\n\n"
        string_val: ""
        string_val: "…"
        string_val: ""
        string_val: "…"
        string_val: ""
        string_val: ""
        string_val: ""
        string_val: ""
        string_val: ""
        string_val: ""
        string_val: ""
        string_val: "GET /list HTTP/1.0\n\n"
        string_val: ""
        string_val: "…"
        string_val: ""
        string_val: ""
        string_val: ""
        string_val: ""
        string_val: ""
        string_val: ""
        string_val: ""
        string_val: "GET /main/search HTTP/1.0\n\n"
        string_val: ""
        string_val: ""
        string_val: "…"
        string_val: ""
        string_val: ""
        string_val: ""
        string_val: ""
        string_val: "GET /list/wp-content HTTP/1.0\n\n"
        string_val: ""
        string_val: ""
        string_val: ""
        string_val: "…"
        string_val: ""
        string_val: "…"
        string_val: ""
        string_val: ""
        string_val: ""
        string_val: ""
        string_val: ""
        string_val: ""
        string_val: ""
        string_val: "GET /main HTTP/1.0\n\n"
        string_val: ""
        string_val: "…"
        string_val: ""
        string_val: ""
        string_val: ""
        string_val: ""
        string_val: ""
        string_val: ""
        string_val: ""
        string_val: "GET /app/search HTTP/1.0\n\n"
        string_val: ""
        string_val: "…"
        string_val: ""
        string_val: "body></html>"
        string_val: ""
        string_val: ""
        string_val: ""
        string_val: ""
        string_val: ""
        string_val: ""
        string_val: ""
        string_val: "GET /list HTTP/1.0\n\n"
        string_val: ""
        string_val: ""
        string_val: "…"
        string_val: ""
        string_val: ""
        string_val: ""
        string_val: ""
        string_val: "GET /blog/app HTTP/1.0\n\n"
        string_val: ""
        string_val: ""
        string_val: ""
        string_val: "…"
        string_val: ""
        string_val: ""
        string_val: ""
        string_val: ""
        string_val: "…"
        string_val: ""
        string_val: ""
        string_val: ""
        string_val: "GET /posts/search/blog HTTP/1.0\n\n"
        string_val: ""
        string_val: ""
        string_val: ""
        string_val: "GET /categories/categories HTTP/1.0\n\n"
        string_val: ""
        string_val: "…"
        string_val: ""
        string_val: ""
        string_val: ""
        string_val: "…"
        string_val: ""
        string_val: ""
        string_val: ""
        string_val: "…"
        string_val: ""
        string_val: ""
        string_val: ""
        string_val: ""
        string_val: ""
        string_val: ""
        string_val: ""
        string_val: ""
        string_val: ""
        string_val: "GET /list/list/app HTTP/1.0\n\n"
        string_val: ""
        string_val: ""
        string_val: ""
        string_val: "…"
        string_val: "GET /tags HTTP/1.0\n\n"
        string_val: ""
        string_val: ""
        string_val: "…"
        string_val: "…"
        string_val: ""
        string_val: ""
        string_val: ""
        string_val: ""
        string_val: ""
        string_val: ""
        string_val: ""
        string_val: ""
        string_val: ""
        string_val: ""
        string_val: ""
        string_val: "GET /tags HTTP/1.0\n\n"
        string_val: ""
        string_val: "…"
        string_val: ""
        string_val: "…"
        string_val: ""
        string_val: ""
        string_val: ""
        string_val: ""
        string_val: ""
        string_val: ""
        string_val: ""
        string_val: "GET /tags/tag/tags HTTP/1.0\n\n"
        string_val: ""
        string_val: "…"
        string_val: ""
        string_val: ""
        string_val: ""
        string_val: ""
        string_val: ""
        string_val: ""
        string_val: ""
        string_val: "GET /categories/categories HTTP/1.0\n\n"
        string_val: ""
        string_val: "…"
        string_val: ""
        string_val: ""
        string_val: ""
        string_val: ""
        string_val: ""
        string_val: ""
        string_val: ""
        string_val: ""
        string_val: ""
        string_val: ""
        string_val: ""
        string_val: ""
        string_val: ""
        string_val: ""
        string_val: ""
        string_val: ""
        string_val: ""
        string_val: ""
        string_val: ""
        string_val: ""
        string_val: ""
        string_val: ""
        string_val: ""
        string_val: ""
        string_val: ""
        string_val: ""
        string_val: ""
        string_val: ""
        string_val: ""
        string_val: ""
        string_val: ""
        string_val: ""
        string_val: ""
        string_val: ""
        string_val: ""
        string_val: ""
        string_val: ""
        string_val: ""
        string_val: ""
        string_val: ""
        string_val: ""
        string_val: ""
        string_val: ""
        string_val: ""
        string_val: ""
        string_val: ""
        string_val: ""
        string_val: ""
        string_val: ""
        string_val: ""
        string_val: ""
        string_val: ""
        string_val: ""
        string_val: ""
        string_val: ""
        string_val: ""
        string_val: ""
        string_val: ""
        string_val: ""
        string_val: ""
        string_val: ""
        string_val: ""
        string_val: ""
        string_val: ""
        string_val: ""
        string_val: ""
        string_val: ""
        string_val: ""
        string_val: ""
        string_val: ""
        string_val: ""
        string_val: ""
        string_val: ""
        string_val: ""
        string_val: ""
        string_val: ""
        string_val: ""
        string_val: ""
        string_val: ""
        string_val: ""
        string_val: ""
        string_val: ""
        string_val: ""
        string_val: ""
        string_val: ""
        string_val: ""
        string_val: ""
        string_val: ""
        string_val: ""
        string_val: ""
        string_val: ""
        string_val: ""
        string_val: ""
        string_val: ""
        string_val: ""
        string_val: ""
        string_val: ""
        string_val: ""
        string_val: ""
        string_val: ""
        string_val: ""
        string_val: ""
        string_val: ""
        string_val: ""
        string_val: ""
        string_val: ""
        string_val: ""
        string_val: ""
        string_val: ""
        string_val: ""
        string_val: ""
        string_val: ""
        string_val: ""
        string_val: ""
        string_val: ""
        string_val: ""
        string_val: ""
        string_val: ""
        string_val: ""
        string_val: ""
        string_val: ""
        string_val: ""
        string_val: ""
        string_val: ""
        string_val: ""
        string_val: ""
        string_val: ""
        string_val: ""
        string_val: ""
        string_val: ""
        string_val: ""
        string_val: ""
        string_val: ""
        string_val: ""
        string_val: ""
        string_val: ""
        string_val: ""
        string_val: ""
        string_val: ""
        string_val: ""
        string_val: ""
        string_val: ""
        string_val: ""
        string_val: ""
        string_val: ""
        string_val: ""
        string_val: ""
        string_val: ""
        string_val: ""
        string_val: ""
        string_val: ""
        string_val: ""
        string_val: ""
        string_val: ""
        string_val: ""
        string_val: ""
        string_val: ""
        string_val: ""
        string_val: ""
        string_val: ""
        string_val: ""
        string_val: ""
        string_val: ""
        string_val: ""
        string_val: ""
        string_val: ""
        string_val: ""
        string_val: ""
        string_val: ""
        string_val: ""
        string_val: ""
        string_val: ""
        string_val: ""
        string_val: ""
        string_val: ""
        string_val: ""
        string_val: ""
        string_val: ""
        string_val: ""
        string_val: ""
        string_val: ""
        string_val: ""
        string_val: ""
        string_val: ""
        string_val: ""
        string_val: ""
        string_val: ""
        string_val: ""
        string_val: ""
        string_val: ""
        string_val: ""
        string_val: ""
        string_val: ""
        string_val: ""
        string_val: ""
        string_val: ""
        string_val: ""
        string_val: ""
        string_val: ""
        string_val: ""
        string_val: ""
        string_val: ""
        string_val: ""
        string_val: ""
        string_val: ""
        string_val: ""
        string_val: ""
        string_val: ""
        string_val: ""
        string_val: ""
        string_val: ""
        string_val: ""
        string_val: ""
        string_val: ""
        string_val: ""
        string_val: ""
        string_val: ""
        string_val: ""
        string_val: ""
        string_val: ""
        string_val: ""
        string_val: ""
        string_val: ""
        string_val: ""
        string_val: ""
        string_val: ""
        string_val: ""
        string_val: ""
        string_val: ""
        string_val: ""
        string_val: ""
        string_val: ""
        string_val: ""
        string_val: ""
        string_val: ""
        string_val: ""
        string_val: ""
        string_val: ""
        string_val: ""
        string_val: ""
        string_val: ""
        string_val: ""
        string_val: ""
        string_val: ""
        string_val: ""
        string_val: ""
        string_val: ""
        string_val: ""
        string_val: ""
        string_val: ""
        string_val: ""
        string_val: ""
        string_val: ""
        string_val: ""
        string_val: ""
        string_val: ""
        string_val: ""
        string_val: ""
        string_val: ""
        string_val: ""
        string_val: ""
        string_val: ""
        string_val: ""
        string_val: ""
        string_val: ""
        string_val: ""
        string_val: ""
        string_val: ""
        string_val: ""
        string_val: ""
        string_val: ""
        string_val: ""
        string_val: ""
        string_val: ""
        string_val: ""
        string_val: ""
        string_val: ""
        string_val: ""
        string_val: ""
        string_val: ""
        string_val: ""
        string_val: ""
        string_val: ""
        string_val: ""
        string_val: ""
        string_val: ""
        string_val: ""
        string_val: ""
        string_val: ""
        string_val: ""
        string_val: ""
        string_val: ""
        string_val: ""
        string_val: ""
        string_val: ""
        string_val: ""
        string_val: ""
        string_val: ""
        string_val: ""
        string_val: ""
        string_val: ""
        string_val: ""
        string_val: ""
        string_val: ""
        string_val: ""
        string_val: ""
        string_val: ""
        string_val: ""
        string_val: ""
        string_val: ""
        string_val: ""
        string_val: ""
        string_val: ""
        string_val: ""
        string_val: ""
        string_val: ""
        string_val: ""
        string_val: ""
        string_val: ""
        string_val: ""
        string_val: ""
        string_val: ""
        string_val: ""
        string_val: ""
        string_val: ""
        string_val: ""
        string_val: ""
        string_val: ""
        string_val: ""
        string_val: ""
        string_val: ""
        string_val: ""
        string_val: ""
        string_val: ""
        string_val: ""
        string_val: ""
        string_val: ""
        string_val: ""
        string_val: ""
        string_val: ""
        string_val: ""
        string_val: ""
        string_val: ""
        string_val: ""
        string_val: ""
        string_val: ""
        string_val: ""
        string_val: ""
        string_val: ""
        string_val: ""
        string_val: ""
        string_val: ""
        string_val: ""
        string_val: ""
        string_val: ""
        string_val: ""
        string_val: ""
        string_val: ""
        string_val: ""
        string_val: ""
        string_val: ""
        string_val: ""
        string_val: ""
        string_val: ""
        string_val: ""
        string_val: ""
        string_val: ""
        string_val: ""
        string_val: ""
        string_val: ""
        string_val: ""
        string_val: ""
        string_val: ""
        string_val: ""
        string_val: ""
        string_val: ""
        string_val: ""
        string_val: ""
        string_val: ""
        string_val: ""
        string_val: ""
        string_val: ""
        string_val: ""
        string_val: ""
        string_val: ""
        string_val: ""
        string_val: ""
        string_val: ""
        string_val: ""
        string_val: ""
        string_val: ""
        string_val: ""
        string_val: ""
        string_val: ""
        string_val: ""
        string_val: ""
        string_val: ""
        string_val: ""
        string_val: ""
        string_val: ""
        string_val: ""
        string_val: ""
        string_val: ""
        string_val: ""
        string_val: ""
        string_val: ""
        string_val: ""
        string_val: ""
        string_val: ""
        string_val: ""
        string_val: ""
        string_val: ""
        string_val: ""
        string_val: ""
        string_val: ""
        string_val: ""
        string_val: ""
        string_val: ""
        string_val: ""
        string_val: ""
        string_val: ""
        string_val: ""
        string_val: ""
        string_val: ""
        string_val: ""
        string_val: ""
        string_val: ""
        string_val: ""
        string_val: ""
        string_val: ""
        string_val: ""
        string_val: ""
        string_val: ""
        string_val: ""
        string_val: ""
        string_val: ""
        string_val: ""
        string_val: ""
        string_val: ""
        string_val: ""
        string_val: ""
        string_val: ""
        string_val: ""
        string_val: ""
        string_val: ""
        string_val: ""
        string_val: ""
        string_val: ""
        string_val: ""
        string_val: ""
        string_val: ""
        string_val: ""
        string_val: ""
        string_val: ""
        string_val: ""
        string_val: ""
        string_val: ""
        string_val: ""
        string_val: ""
        string_val: ""
        string_val: ""
        string_val: ""
        string_val: ""
        string_val: ""
        string_val: ""
        string_val: ""
        string_val: ""
        string_val: ""
        string_val: ""
        string_val: ""
        string_val: ""
        string_val: ""
        string_val: ""
        string_val: ""
        string_val: ""
        string_val: ""
        string_val: ""
        string_val: ""
        string_val: ""
        string_val: ""
        string_val: ""
        string_val: ""
        string_val: ""
        string_val: ""
        string_val: ""
        string_val: ""
        string_val: ""
        string_val: ""
        string_val: ""
        string_val: ""
        string_val: ""
        string_val: ""
        string_val: ""
        string_val: ""
        string_val: ""
        string_val: ""
        string_val: ""
        string_val: ""
        string_val: ""
        string_val: ""
        string_val: ""
        string_val: ""
        string_val: ""
        string_val: ""
        string_val: ""
        string_val: ""
        string_val: ""
        string_val: ""
        string_val: ""
        string_val: ""
        string_val: ""
        string_val: ""
        string_val: ""
        string_val: ""
        string_val: ""
        string_val: ""
        string_val: ""
        string_val: ""
        string_val: ""
        string_val: ""
        string_val: ""
        string_val: ""
        string_val: ""
        string_val: ""
        string_val: ""
        string_val: ""
        string_val: ""
        string_val: ""
        string_val: ""
        string_val: ""
        string_val: ""
        string_val: ""
        string_val: ""
        string_val: ""
        string_val: ""
        string_val: ""
        string_val: ""
        string_val: ""
        string_val: ""
        string_val: ""
        string_val: ""
        string_val: ""
        string_val: ""
        string_val: ""
        string_val: ""
        string_val: ""
        string_val: ""
        string_val: ""
        string_val: ""
        string_val: ""
        string_val: ""
        string_val: ""
        string_val: ""
        string_val: ""
        string_val: ""
        string_val: ""
        string_val: ""
        string_val: ""
        string_val: ""
        string_val: ""
        string_val: ""
        string_val: ""
        string_val: ""
        string_val: ""
        string_val: ""
        string_val: ""
        string_val: ""
        string_val: ""
        string_val: ""
        string_val: ""
        string_val: ""
        string_val: ""
        string_val: ""
        string_val: ""
        string_val: ""
        string_val: ""
        string_val: ""
        string_val: ""
        string_val: ""
        string_val: ""
        string_val: ""
        string_val: ""
        string_val: ""
        string_val: ""
        string_val: ""
        string_val: ""
        string_val: ""
        string_val: ""
        string_val: ""
        string_val: ""
        string_val: ""
        string_val: ""
        string_val: ""
        string_val: ""
        string_val: ""
        string_val: ""
        string_val: ""
        string_val: ""
        string_val: ""
        string_val: ""
        string_val: ""
        string_val: ""
        string_val: ""
        string_val: ""
        string_val: ""
        string_val: ""
        string_val: "GET /tags/app/app HTTP/1.0\n\n"
        string_val: ""
        string_val: ""
        string_val: ""
        string_val: "…"
        string_val: "GET /explore/explore/list HTTP/1.0\n\n"
        string_val: ""
        string_val: ""
        string_val: ""
        string_val: "…"
        string_val: "…"
        string_val: ""
        string_val: ""
        string_val: ""
        string_val: ""
        string_val: ""
        string_val: "…"
        string_val: "GET /main HTTP/1.0\n\n"
        string_val: ""
        string_val: ""
        string_val: ""
        string_val: ""
        string_val: ""
        string_val: "…"
        string_val: ""
        string_val: ""
        string_val: ""
        string_val: ""
        string_val: ""
        string_val: ""
        string_val: ""
        string_val: ""
        string_val: ""
        string_val: ""
        string_val: "GET /tag/tags HTTP/1.0\n\n"
        string_val: ""
        string_val: "…"
        string_val: ""
        string_val: "ch yard concern people. Find radio win technology continue.</p></body></html>"
        string_val: ""
        string_val: ""
        string_val: ""
        string_val: ""
        string_val: ""
        string_val: ""
        string_val: ""
        string_val: "GET /blog/wp-content/tags HTTP/1.0\n\n"
        string_val: ""
        string_val: "…"
        string_val: ""
        string_val: ""
        string_val: ""
        string_val: ""
        string_val: ""
        string_val: ""
        string_val: ""
        string_val: "GET /explore HTTP/1.0\n\n"
        string_val: ""
        string_val: "…"
        string_val: ""
        string_val: "…"
        string_val: ""
        string_val: ""
        string_val: ""
        string_val: ""
        string_val: ""
        string_val: ""
        string_val: ""
        string_val: "GET /list/wp-content/wp-content HTTP/1.0\n\n"
        string_val: ""
        string_val: ""
        string_val: ""
        string_val: "…"
        string_val: ""
        string_val: ""
        string_val: "GET /categories/categories/explore HTTP/1.0\n\n"
        string_val: ""
        string_val: ""
        string_val: ""
        string_val: "…"
        string_val: ""
        string_val: ""
        string_val: "…"
        string_val: ""
        string_val: ""
        string_val: ""
        string_val: ""
        string_val: ""
        string_val: ""
        string_val: ""
        string_val: "GET /blog/wp-content/wp-content HTTP/1.0\n\n"
        string_val: ""
        string_val: "…"
        string_val: ""
        string_val: "…"
        string_val: ""
        string_val: ""
        string_val: ""
        string_val: ""
        string_val: ""
        string_val: ""
        string_val: ""
        string_val: "GET /category/tag/category HTTP/1.0\n\n"
        string_val: ""
        string_val: "…"
        string_val: ""
        string_val: "…"
        string_val: ""
        string_val: ""
        string_val: ""
        string_val: ""
        string_val: ""
        string_val: ""
        string_val: ""
        string_val: "GET /wp-content/wp-content HTTP/1.0\n\n"
        string_val: ""
        string_val: "…"
        string_val: ""
        string_val: "…"
        string_val: ""
        string_val: ""
        string_val: ""
        string_val: ""
        string_val: ""
        string_val: ""
        string_val: ""
        string_val: "GET /wp-content/wp-content HTTP/1.0\n\n"
        string_val: ""
        string_val: "…"
        string_val: ""
        string_val: "…"
        string_val: ""
        string_val: ""
        string_val: ""
        string_val: ""
        string_val: ""
        string_val: ""
        string_val: ""
        string_val: "GET /wp-content/wp-content HTTP/1.0\n\n"
        string_val: ""
        string_val: "…"
        string_val: ""
        string_val: "…"
        string_val: ""
        string_val: ""
        string_val: ""
        string_val: ""
        string_val: ""
        string_val: ""
        string_val: ""
        string_val: "GET /blog/wp-content/tags HTTP/1.0\n\n"
        string_val: ""
        string_val: ""
        string_val: ""
        string_val: "…"
        string_val: ""
        string_val: ""
        string_val: "GET /categories/categories/explore HTTP/1.0\n\n"
        string_val: ""
        string_val: ""
        string_val: ""
        string_val: ""
        string_val: "…"
        string_val: ""
        string_val: ""
        string_val: ""
        string_val: ""
        string_val: "…"
        string_val: "GET /list/wp-content/wp-content HTTP/1.0\n\n"
        string_val: ""
        string_val: ""
        string_val: ""
        string_val: "…"
        string_val: ""
        string_val: ""
        string_val: ""
        string_val: ""
        string_val: ""
        string_val: "…"
        string_val: ""
        string_val: ""
        string_val: "GET /category/tag/category HTTP/1.0\n\n"
        string_val: ""
        string_val: ""
        string_val: ""
        string_val: "…"
        string_val: ""
        string_val: ""
        string_val: "…"
        string_val: ""
        string_val: ""
        string_val: ""
        string_val: ""
        string_val: ""
        string_val: ""
        string_val: ""
        string_val: "GET /main/categories HTTP/1.0\n\n"
        string_val: ""
        string_val: "…"
        string_val: ""
        string_val: ""
        string_val: ""
        string_val: ""
        string_val: ""
        string_val: ""
        string_val: ""
        string_val: "GET /list/wp-content/wp-content HTTP/1.0\n\n"
        string_val: ""
        string_val: "…"
        string_val: ""
        string_val: "…"
        string_val: ""
        string_val: ""
        string_val: ""
        string_val: ""
        string_val: ""
        string_val: ""
        string_val: ""
        string_val: "GET /main/categories HTTP/1.0\n\n"
        string_val: ""
        string_val: "…"
        string_val: ""
        string_val: ""
        string_val: "…"
        string_val: ""
        string_val: ""
        string_val: ""
        string_val: ""
        string_val: "GET /blog/wp-content/wp-content HTTP/1.0\n\n"
        string_val: ""
        string_val: ""
        string_val: ""
        string_val: "…"
        string_val: ""
        string_val: "…"
        string_val: ""
        string_val: ""
        string_val: ""
        string_val: ""
        string_val: ""
        string_val: ""
        string_val: ""
        string_val: "GET /blog/wp-content/wp-content HTTP/1.0\n\n"
        string_val: ""
        string_val: "…"
        string_val: ""
        string_val: "…"
        string_val: ""
        string_val: ""
        string_val: ""
        string_val: ""
        string_val: ""
        string_val: ""
        string_val: ""
        string_val: "GET /tag/tags HTTP/1.0\n\n"
        string_val: ""
        string_val: "…"
        string_val: ""
        string_val: ""
        string_val: ""
        string_val: ""
        string_val: ""
        string_val: ""
        string_val: ""
        string_val: ""
        string_val: ""
        string_val: ""
        string_val: "GET /explore HTTP/1.0\n\n"
        string_val: "GET /category/tag/category HTTP/1.0\n\n"
        string_val: ""
        string_val: ""
        string_val: "…"
        string_val: "…"
        string_val: ""
        string_val: ""
        string_val: ""
        string_val: ""
        string_val: ""
        string_val: ""
        string_val: ""
        string_val: ""
        string_val: ""
        string_val: ""
        string_val: ""
        string_val: "GET /explore HTTP/1.0\n\n"
        string_val: ""
        string_val: "…"
        string_val: ""
        string_val: ""
        string_val: ""
        string_val: ""
        string_val: ""
        string_val: ""
        string_val: ""
        string_val: "GET /blog/wp-content/wp-content HTTP/1.0\n\n"
        string_val: ""
        string_val: "…"
        string_val: ""
        string_val: ""
        string_val: ""
        string_val: ""
        string_val: ""
        string_val: ""
        string_val: ""
        string_val: "GET /category/posts HTTP/1.0\n\n"
        string_val: ""
        string_val: "…"
        string_val: ""
        string_val: ""
        string_val: ""
        string_val: ""
        string_val: ""
        string_val: ""
        string_val: ""
        string_val: "GET /category/posts HTTP/1.0\n\n"
        string_val: ""
        string_val: "…"
        string_val: ""
        string_val: ""
        string_val: "…"
        string_val: ""
        string_val: ""
        string_val: ""
        string_val: ""
        string_val: "GET /category/category/blog HTTP/1.0\n\n"
        string_val: ""
        string_val: ""
        string_val: ""
        string_val: "…"
        string_val: ""
        string_val: ""
        string_val: ""
        string_val: ""
        string_val: ""
        string_val: ""
        string_val: ""
        string_val: "GET /posts/list HTTP/1.0\n\n"
        string_val: ""
        string_val: "…"
        string_val: ""
        string_val: ""
        string_val: ""
        string_val: ""
        string_val: ""
        string_val: ""
        string_val: "GET /category HTTP/1.0\n\n"
        string_val: ""
        string_val: ""
        string_val: "…"
        string_val: ""
        string_val: "…"
        string_val: ""
        string_val: ""
        string_val: ""
        string_val: ""
        string_val: ""
        string_val: ""
        string_val: ""
        string_val: "GET /category HTTP/1.0\n\n"
        string_val: ""
        string_val: "…"
        string_val: ""
        string_val: "…"
        string_val: ""
        string_val: ""
        string_val: ""
        string_val: ""
        string_val: ""
        string_val: ""
        string_val: ""
        string_val: "GET /posts/list HTTP/1.0\n\n"
        string_val: ""
        string_val: "…"
        string_val: ""
        string_val: ""
        string_val: ""
        string_val: ""
        string_val: ""
        string_val: ""
        string_val: ""
        string_val: "GET /tags/category HTTP/1.0\n\n"
        string_val: ""
        string_val: "…"
        string_val: ""
        string_val: "ion war. Myself usually to total court hear.</p></body></html>"
        string_val: ""
        string_val: ""
        string_val: ""
        string_val: ""
        string_val: ""
        string_val: ""
        string_val: ""
        string_val: ""
        string_val: "GET /tag HTTP/1.0\n\n"
        string_val: ""
        string_val: "…"
        string_val: ""
        string_val: "…"
        string_val: ""
        string_val: ""
        string_val: ""
        string_val: ""
        string_val: ""
        string_val: ""
        string_val: ""
        string_val: "GET /tags HTTP/1.0\n\n"
        string_val: ""
        string_val: "…"
        string_val: ""
        string_val: ""
        string_val: ""
        string_val: ""
        string_val: ""
        string_val: ""
        string_val: ""
        string_val: "GET /main/blog HTTP/1.0\n\n"
        string_val: ""
        string_val: "…"
        string_val: ""
        string_val: " your agent by standard spring land spring. Single off food role produce.</p></body></html>"
        string_val: ""
        string_val: ""
        string_val: ""
        string_val: ""
        string_val: ""
        string_val: ""
        string_val: ""
        string_val: "GET /tag HTTP/1.0\n\n"
        string_val: ""
        string_val: "…"
        string_val: ""
        string_val: "…"
        string_val: ""
        string_val: ""
        string_val: ""
        string_val: ""
        string_val: ""
        string_val: ""
        string_val: ""
        string_val: "GET /wp-content/search HTTP/1.0\n\n"
        string_val: ""
        string_val: "…"
        string_val: ""
        string_val: "…"
        string_val: ""
        string_val: ""
        string_val: ""
        string_val: ""
        string_val: ""
        string_val: ""
        string_val: ""
        string_val: "GET /tag/app/list HTTP/1.0\n\n"
        string_val: ""
        string_val: "…"
        string_val: ""
        string_val: ""
        string_val: "…"
        string_val: ""
        string_val: ""
        string_val: ""
        string_val: ""
        string_val: "GET /category/categories/app HTTP/1.0\n\n"
        string_val: ""
        string_val: ""
        string_val: ""
        string_val: "…"
        string_val: ""
        string_val: "…"
        string_val: ""
        string_val: ""
        string_val: ""
        string_val: ""
        string_val: ""
        string_val: ""
        string_val: ""
        string_val: "GET /main/blog HTTP/1.0\n\n"
        string_val: ""
        string_val: "…"
        string_val: ""
        string_val: ""
        string_val: ""
        string_val: ""
        string_val: ""
        string_val: ""
        string_val: ""
        string_val: "GET /wp-content/search HTTP/1.0\n\n"
        string_val: ""
        string_val: "…"
        string_val: ""
        string_val: "…"
        string_val: ""
        string_val: ""
        string_val: ""
        string_val: ""
        string_val: ""
        string_val: ""
        string_val: ""
        string_val: "GET /tags HTTP/1.0\n\n"
        string_val: ""
        string_val: "…"
        string_val: ""
        string_val: ""
        string_val: ""
        string_val: ""
        string_val: ""
        string_val: ""
        string_val: ""
        string_val: "GET /explore HTTP/1.0\n\n"
        string_val: ""
        string_val: "…"
        string_val: ""
        string_val: ""
        string_val: ""
        string_val: ""
        string_val: ""
        string_val: ""
        string_val: ""
        string_val: "GET /explore/category HTTP/1.0\n\n"
        string_val: ""
        string_val: "…"
        string_val: ""
        string_val: ""
        string_val: ""
        string_val: "…"
        string_val: ""
        string_val: ""
        string_val: "GET /list/main HTTP/1.0\n\n"
        string_val: ""
        string_val: ""
        string_val: ""
        string_val: ""
        string_val: ""
        string_val: "…"
        string_val: ""
        string_val: ""
        string_val: ""
        string_val: "GET /search HTTP/1.0\n\n"
        string_val: "…"
        string_val: ""
        string_val: ""
        string_val: "…"
        string_val: ""
        string_val: ""
        string_val: ""
        string_val: "…"
        string_val: ""
        string_val: ""
        string_val: ""
        string_val: ""
        string_val: ""
        string_val: ""
        string_val: ""
        string_val: ""
        string_val: "GET /main/explore HTTP/1.0\n\n"
        string_val: ""
        string_val: "…"
        string_val: ""
        string_val: ""
        string_val: ""
        string_val: ""
        string_val: ""
        string_val: ""
        string_val: ""
        string_val: "GET /tag/search/category HTTP/1.0\n\n"
        string_val: ""
        string_val: "…"
        string_val: ""
        string_val: "…"
        string_val: ""
        string_val: ""
        string_val: ""
        string_val: ""
        string_val: ""
        string_val: ""
        string_val: ""
        string_val: "GET /app/tag/category HTTP/1.0\n\n"
        string_val: ""
        string_val: "…"
        string_val: ""
        string_val: "…"
        string_val: ""
        string_val: ""
        string_val: ""
        string_val: ""
        string_val: ""
        string_val: ""
        string_val: ""
        string_val: "GET /categories HTTP/1.0\n\n"
        string_val: ""
        string_val: "…"
        string_val: ""
        string_val: "…"
        string_val: ""
        string_val: ""
        string_val: ""
        string_val: ""
        string_val: ""
        string_val: ""
        string_val: ""
        string_val: "GET /categories HTTP/1.0\n\n"
        string_val: ""
        string_val: "…"
        string_val: ""
        string_val: "…"
        string_val: ""
        string_val: ""
        string_val: ""
        string_val: ""
        string_val: ""
        string_val: ""
        string_val: ""
        string_val: "GET /app/tag/category HTTP/1.0\n\n"
        string_val: ""
        string_val: "…"
        string_val: ""
        string_val: "…"
        string_val: ""
        string_val: ""
        string_val: ""
        string_val: ""
        string_val: ""
        string_val: ""
        string_val: ""
        string_val: "GET /app/tag/category HTTP/1.0\n\n"
        string_val: ""
        string_val: "…"
        string_val: ""
        string_val: ""
        string_val: ""
        string_val: ""
        string_val: ""
        string_val: ""
        string_val: ""
        string_val: "GET /search HTTP/1.0\n\n"
        string_val: ""
        string_val: "…"
        string_val: ""
        string_val: "…"
        string_val: ""
        string_val: ""
        string_val: ""
        string_val: ""
        string_val: ""
        string_val: ""
        string_val: "GET /search HTTP/1.0\n\n"
        string_val: ""
        string_val: ""
        string_val: "…"
        string_val: ""
        string_val: ""
        string_val: ""
        string_val: ""
        string_val: ""
        string_val: ""
        string_val: ""
        string_val: "GET /main/explore HTTP/1.0\n\n"
        string_val: ""
        string_val: "…"
        string_val: ""
        string_val: ""
        string_val: ""
        string_val: ""
        string_val: ""
        string_val: ""
        string_val: ""
        string_val: "GET /main/explore HTTP/1.0\n\n"
        string_val: ""
        string_val: "…"
        string_val: ""
        string_val: ""
        string_val: ""
        string_val: ""
        string_val: ""
        string_val: ""
        string_val: ""
        string_val: "GET /app/tag/category HTTP/1.0\n\n"
        string_val: ""
        string_val: "…"
        string_val: ""
        string_val: "…"
        string_val: ""
        string_val: ""
        string_val: ""
        string_val: ""
        string_val: ""
        string_val: ""
        string_val: ""
        string_val: "GET /main/explore HTTP/1.0\n\n"
        string_val: ""
        string_val: "…"
        string_val: ""
        string_val: "…"
        string_val: ""
        string_val: ""
        string_val: ""
        string_val: ""
        string_val: ""
        string_val: ""
        string_val: ""
        string_val: "GET /main HTTP/1.0\n\n"
        string_val: ""
        string_val: ""
        string_val: ""
        string_val: "…"
        string_val: ""
        string_val: ""
        string_val: "GET /tag/search/category HTTP/1.0\n\n"
        string_val: "…"
        string_val: ""
        string_val: ""
        string_val: "…"
        string_val: ""
        string_val: ""
        string_val: ""
        string_val: "…"
        string_val: ""
        string_val: ""
        string_val: ""
        string_val: ""
        string_val: ""
        string_val: ""
        string_val: ""
        string_val: ""
        string_val: "GET /tag/search/category HTTP/1.0\n\n"
        string_val: ""
        string_val: "…"
        string_val: ""
        string_val: "…"
        string_val: ""
        string_val: ""
        string_val: ""
        string_val: ""
        string_val: ""
        string_val: ""
        string_val: ""
        string_val: "GET /search HTTP/1.0\n\n"
        string_val: ""
        string_val: "…"
        string_val: ""
        string_val: ""
        string_val: ""
        string_val: ""
        string_val: ""
        string_val: ""
        string_val: ""
        string_val: "GET /app/app HTTP/1.0\n\n"
        string_val: ""
        string_val: "…"
        string_val: ""
        string_val: ""
        string_val: ""
        string_val: ""
        string_val: ""
        string_val: ""
        string_val: ""
        string_val: "GET /search HTTP/1.0\n\n"
        string_val: ""
        string_val: "…"
        string_val: ""
        string_val: ""
        string_val: ""
        string_val: ""
        string_val: ""
        string_val: ""
        string_val: ""
        string_val: "GET /search/category HTTP/1.0\n\n"
        string_val: ""
        string_val: "…"
        string_val: ""
        string_val: "…"
        string_val: ""
        string_val: ""
        string_val: ""
        string_val: ""
        string_val: ""
        string_val: ""
        string_val: ""
        string_val: "GET /main HTTP/1.0\n\n"
        string_val: ""
        string_val: "…"
        string_val: ""
        string_val: "h work full find miss capital herself write.</p></body></html>"
        string_val: ""
        string_val: ""
        string_val: ""
        string_val: ""
        string_val: ""
        string_val: ""
        string_val: ""
        string_val: "GET /app/app HTTP/1.0\n\n"
        string_val: ""
        string_val: "…"
        string_val: ""
        string_val: ""
        string_val: "…"
        string_val: ""
        string_val: ""
        string_val: ""
        string_val: ""
        string_val: "GET /main/list/list HTTP/1.0\n\n"
        string_val: ""
        string_val: ""
        string_val: ""
        string_val: "…"
        string_val: ""
        string_val: ""
        string_val: ""
        string_val: ""
        string_val: ""
        string_val: ""
        string_val: ""
        string_val: "GET /list/category HTTP/1.0\n\n"
        string_val: ""
        string_val: "…"
        string_val: ""
        string_val: "…"
        string_val: ""
        string_val: "…"
        string_val: ""
        string_val: ""
        string_val: ""
        string_val: ""
        string_val: ""
        string_val: ""
        string_val: ""
        string_val: "GET /explore/app HTTP/1.0\n\n"
        string_val: ""
        string_val: "…"
        string_val: ""
        string_val: "…"
        string_val: ""
        string_val: ""
        string_val: ""
        string_val: ""
        string_val: ""
        string_val: ""
        string_val: ""
        string_val: "GET /wp-content/list/category HTTP/1.0\n\n"
        string_val: ""
        string_val: "…"
        string_val: ""
        string_val: "…"
        string_val: ""
        string_val: ""
        string_val: ""
        string_val: ""
        string_val: ""
        string_val: ""
        string_val: ""
        string_val: "GET /wp-content/posts/category HTTP/1.0\n\n"
        string_val: ""
        string_val: "…"
        string_val: ""
        string_val: ""
        string_val: ""
        string_val: ""
        string_val: ""
        string_val: ""
        string_val: ""
        string_val: "GET /list/category HTTP/1.0\n\n"
        string_val: ""
        string_val: "…"
        string_val: ""
        string_val: "…"
        string_val: ""
        string_val: ""
        string_val: ""
        string_val: ""
        string_val: ""
        string_val: ""
        string_val: ""
        string_val: ""
        string_val: ""
        string_val: ""
        string_val: ""
        string_val: ""
        string_val: ""
        string_val: ""
        string_val: ""
        string_val: ""
        string_val: ""
        string_val: ""
        string_val: ""
        string_val: ""
        string_val: ""
        string_val: ""
        string_val: ""
        string_val: ""
        string_val: ""
        string_val: ""
        string_val: ""
        string_val: ""
        string_val: ""
        string_val: ""
        string_val: ""
        string_val: ""
        string_val: ""
        string_val: ""
        string_val: ""
        string_val: ""
        string_val: ""
        string_val: ""
        string_val: ""
        string_val: ""
        string_val: ""
        string_val: ""
        string_val: ""
        string_val: ""
        string_val: ""
        string_val: ""
        string_val: ""
        string_val: ""
        string_val: ""
        string_val: ""
        string_val: ""
        string_val: ""
        string_val: ""
        string_val: ""
        string_val: ""
        string_val: ""
        string_val: ""
        string_val: ""
        string_val: ""
        string_val: ""
        string_val: ""
        string_val: ""
        string_val: ""
        string_val: ""
        string_val: ""
        string_val: ""
        string_val: ""
        string_val: ""
        string_val: ""
        string_val: ""
        string_val: ""
        string_val: ""
        string_val: ""
        string_val: ""
        string_val: ""
        string_val: ""
        string_val: ""
        string_val: ""
        string_val: ""
        string_val: ""
        string_val: ""
        string_val: ""
        string_val: ""
        string_val: ""
        string_val: ""
        string_val: ""
        string_val: ""
        string_val: ""
        string_val: ""
        string_val: ""
        string_val: ""
        string_val: ""
        string_val: ""
        string_val: ""
        string_val: ""
        string_val: ""
        string_val: ""
        string_val: ""
        string_val: ""
        string_val: ""
        string_val: ""
        string_val: ""
        string_val: ""
        string_val: ""
        string_val: ""
        string_val: ""
        string_val: ""
        string_val: ""
        string_val: ""
        string_val: ""
        string_val: "GET /list/main/main HTTP/1.0\n\n"
        string_val: ""
        string_val: "…"
        string_val: ""
        string_val: "…"
        string_val: ""
        string_val: "oon.</p></body></html>"
        string_val: ""
        string_val: ""
        string_val: ""
        string_val: ""
        string_val: ""
        string_val: ""
        string_val: ""
        string_val: "GET /categories HTTP/1.0\n\n"
        string_val: ""
        string_val: "…"
        string_val: ""
        string_val: ""
        string_val: ""
        string_val: ""
        string_val: ""
        string_val: ""
        string_val: ""
        string_val: "GET /posts/list/explore HTTP/1.0\n\n"
        string_val: ""
        string_val: "…"
        string_val: ""
        string_val: ""
        string_val: ""
        string_val: ""
        string_val: ""
        string_val: ""
        string_val: ""
        string_val: "GET /posts/list/explore HTTP/1.0\n\n"
        string_val: ""
        string_val: ""
        string_val: ""
        string_val: "…"
        string_val: ""
        string_val: ""
        string_val: "GET /posts/list/explore HTTP/1.0\n\n"
        string_val: "…"
        string_val: ""
        string_val: ""
        string_val: "…"
        string_val: ""
        string_val: ""
        string_val: ""
        string_val: ""
        string_val: ""
        string_val: ""
        string_val: ""
        string_val: ""
        string_val: ""
        string_val: ""
        string_val: "GET /list/main/main HTTP/1.0\n\n"
        string_val: ""
        string_val: "…"
        string_val: ""
        string_val: "…"
        string_val: ""
        string_val: ""
        string_val: ""
        string_val: ""
        string_val: ""
        string_val: ""
        string_val: ""
        string_val: "GET /posts/list/explore HTTP/1.0\n\n"
        string_val: ""
        string_val: "…"
        string_val: ""
        string_val: "…"
        string_val: ""
        string_val: ""
        string_val: ""
        string_val: ""
        string_val: ""
        string_val: ""
        string_val: ""
        string_val: "GET /app/tag HTTP/1.0\n\n"
        string_val: ""
        string_val: "…"
        string_val: ""
        string_val: ""
        string_val: ""
        string_val: ""
        string_val: ""
        string_val: ""
        string_val: ""
        string_val: "GET /posts/list/explore HTTP/1.0\n\n"
        string_val: ""
        string_val: "…"
        string_val: ""
        string_val: ""
        string_val: "…"
        string_val: ""
        string_val: ""
        string_val: ""
        string_val: ""
        string_val: "GET /list/list/tag HTTP/1.0\n\n"
        string_val: ""
        string_val: ""
        string_val: ""
        string_val: "…"
        string_val: ""
        string_val: "…"
        string_val: ""
        string_val: ""
        string_val: ""
        string_val: ""
        string_val: ""
        string_val: ""
        string_val: ""
        string_val: "GET /app/tag HTTP/1.0\n\n"
        string_val: ""
        string_val: "…"
        string_val: ""
        string_val: "…"
        string_val: ""
        string_val: ""
        string_val: ""
        string_val: ""
        string_val: ""
        string_val: ""
        string_val: ""
        string_val: "GET /list/list/tag HTTP/1.0\n\n"
        string_val: ""
        string_val: "…"
        string_val: ""
        string_val: "…"
        string_val: ""
        string_val: "…"
        string_val: ""
        string_val: ""
        string_val: ""
        string_val: ""
        string_val: ""
        string_val: ""
        string_val: ""
        string_val: "GET /tag/posts/tags HTTP/1.0\n\n"
        string_val: ""
        string_val: "…"
        string_val: ""
        string_val: ""
        string_val: "…"
        string_val: ""
        string_val: ""
        string_val: ""
        string_val: ""
        string_val: "GET /app/tag HTTP/1.0\n\n"
        string_val: ""
        string_val: ""
        string_val: ""
        string_val: "…"
        string_val: ""
        string_val: "…"
        string_val: ""
        string_val: ""
        string_val: ""
        string_val: ""
        string_val: ""
        string_val: ""
        string_val: ""
        string_val: "GET /wp-content/categories/tag HTTP/1.0\n\n"
        string_val: ""
        string_val: "…"
        string_val: ""
        string_val: "…"
        string_val: ""
        string_val: ""
        string_val: ""
        string_val: ""
        string_val: ""
        string_val: ""
        string_val: ""
        string_val: ""
        string_val: ""
        string_val: "GET /list/list/tag HTTP/1.0\n\n"
        string_val: ""
        string_val: ""
        string_val: "GET /tag/posts/tags HTTP/1.0\n\n"
        string_val: "…"
        string_val: ""
        string_val: ""
        string_val: "…"
        string_val: ""
        string_val: ""
        string_val: ""
        string_val: ""
        string_val: ""
        string_val: ""
        string_val: ""
        string_val: ""
        string_val: ""
        string_val: ""
        string_val: "GET /app/tag HTTP/1.0\n\n"
        string_val: ""
        string_val: "…"
        string_val: ""
        string_val: ""
        string_val: ""
        string_val: ""
        string_val: ""
        string_val: ""
        string_val: ""
        string_val: "GET /category/search/categories HTTP/1.0\n\n"
        string_val: ""
        string_val: "…"
        string_val: ""
        string_val: ""
        string_val: ""
        string_val: ""
        string_val: ""
        string_val: ""
        string_val: ""
        string_val: ""
        string_val: ""
        string_val: "GET /list/main/main HTTP/1.0\n\n"
        string_val: ""
        string_val: ""
        string_val: ""
        string_val: "GET /wp-content/categories/tag HTTP/1.0\n\n"
        string_val: ""
        string_val: "…"
        string_val: ""
        string_val: ""
        string_val: ""
        string_val: "…"
        string_val: "GET /posts/list/explore HTTP/1.0\n\n"
        string_val: ""
        string_val: ""
        string_val: ""
        string_val: ""
        string_val: "…"
        string_val: "…"
        string_val: ""
        string_val: ""
        string_val: ""
        string_val: ""
        string_val: ""
        string_val: ""
        string_val: ""
        string_val: ""
        string_val: ""
        string_val: ""
        string_val: ""
        string_val: ""
        string_val: "GET /list/main/main HTTP/1.0\n\n"
        string_val: ""
        string_val: ""
        string_val: "…"
        string_val: ""
        string_val: ""
        string_val: ""
        string_val: "…"
        string_val: "GET /list/main/main HTTP/1.0\n\n"
        string_val: ""
        string_val: ""
        string_val: ""
        string_val: "…"
        string_val: ""
        string_val: ""
        string_val: ""
        string_val: ""
        string_val: ""
        string_val: ""
        string_val: ""
        string_val: ""
        string_val: ""
        string_val: "GET /posts/list/explore HTTP/1.0\n\n"
        string_val: ""
        string_val: "…"
        string_val: ""
        string_val: "…"
        string_val: ""
        string_val: ""
        string_val: ""
        string_val: ""
        string_val: ""
        string_val: ""
        string_val: ""
        string_val: "GET /tag/posts/tags HTTP/1.0\n\n"
        string_val: ""
        string_val: "…"
        string_val: ""
        string_val: "…"
        string_val: ""
        string_val: "…"
        string_val: ""
        string_val: ""
        string_val: ""
        string_val: ""
        string_val: ""
        string_val: ""
        string_val: ""
        string_val: "GET /posts/list/explore HTTP/1.0\n\n"
        string_val: ""
        string_val: ""
        string_val: "…"
        string_val: ""
        string_val: ""
        string_val: ""
        string_val: "…"
        string_val: "GET /search HTTP/1.0\n\n"
        string_val: ""
        string_val: ""
        string_val: ""
        string_val: "…"
        string_val: "…"
        string_val: ""
        string_val: ""
        string_val: ""
        string_val: ""
        string_val: ""
        string_val: ""
        string_val: "…"
        string_val: "GET /list/main/main HTTP/1.0\n\n"
        string_val: ""
        string_val: ""
        string_val: ""
        string_val: ""
        string_val: ""
        string_val: ""
        string_val: ""
        string_val: "…"
        string_val: "GET /list/main/main HTTP/1.0\n\n"
        string_val: ""
        string_val: ""
        string_val: ""
        string_val: ""
        string_val: "…"
        string_val: "…"
        string_val: ""
        string_val: ""
        string_val: ""
        string_val: "…"
        string_val: ""
        string_val: ""
        string_val: ""
        string_val: ""
        string_val: ""
        string_val: ""
        string_val: ""
        string_val: ""
        string_val: ""
        string_val: "GET /category/search/categories HTTP/1.0\n\n"
        string_val: ""
        string_val: "…"
        string_val: ""
        string_val: "…"
        string_val: ""
        string_val: ""
        string_val: ""
        string_val: ""
        string_val: ""
        string_val: ""
        string_val: ""
        string_val: ""
        string_val: ""
        string_val: "GET /list/list/tag HTTP/1.0\n\n"
        string_val: "GET /posts/list/explore HTTP/1.0\n\n"
        string_val: ""
        string_val: ""
        string_val: ""
        string_val: "…"
        string_val: "…"
        string_val: ""
        string_val: ""
        string_val: ""
        string_val: ""
        string_val: ""
        string_val: ""
        string_val: ""
        string_val: ""
        string_val: ""
        string_val: ""
        string_val: ""
        string_val: "GET /list/list/tag HTTP/1.0\n\n"
        string_val: ""
        string_val: "…"
        string_val: ""
        string_val: ""
        string_val: ""
        string_val: ""
        string_val: ""
        string_val: ""
        string_val: ""
        string_val: "GET /tag/posts/tags HTTP/1.0\n\n"
        string_val: ""
        string_val: "…"
        string_val: ""
        string_val: "…"
        string_val: ""
        string_val: ""
        string_val: ""
        string_val: ""
        string_val: ""
        string_val: ""
        string_val: ""
        string_val: "GET /posts/list/explore HTTP/1.0\n\n"
        string_val: ""
        string_val: ""
        string_val: ""
        string_val: "…"
        string_val: ""
        string_val: ""
        string_val: "GET /search HTTP/1.0\n\n"
        string_val: ""
        string_val: ""
        string_val: ""
        string_val: "…"
        string_val: ""
        string_val: ""
        string_val: ""
        string_val: ""
        string_val: ""
        string_val: ""
        string_val: ""
        string_val: ""
        string_val: "GET /categories HTTP/1.0\n\n"
        string_val: ""
        string_val: "…"
        string_val: ""
        string_val: ""
        string_val: ""
        string_val: ""
        string_val: ""
        string_val: ""
        string_val: ""
        string_val: "GET /list/list/tag HTTP/1.0\n\n"
        string_val: ""
        string_val: "…"
        string_val: ""
        string_val: "…"
        string_val: ""
        string_val: ""
        string_val: ""
        string_val: ""
        string_val: ""
        string_val: ""
        string_val: ""
        string_val: "GET /posts/list/explore HTTP/1.0\n\n"
        string_val: ""
        string_val: "…"
        string_val: ""
        string_val: "through civil. Value talk owner town.</p></body></html>"
        string_val: ""
        string_val: ""
        string_val: ""
        string_val: ""
        string_val: ""
        string_val: ""
        string_val: ""
        string_val: "GET /app/tag HTTP/1.0\n\n"
        string_val: ""
        string_val: "…"
        string_val: ""
        string_val: ""
        string_val: ""
        string_val: ""
        string_val: ""
        string_val: ""
        string_val: ""
        string_val: "GET /category/search/categories HTTP/1.0\n\n"
        string_val: ""
        string_val: "…"
        string_val: ""
        string_val: "…"
        string_val: ""
        string_val: ""
        string_val: ""
        string_val: ""
        string_val: ""
        string_val: ""
        string_val: ""
        string_val: "GET /app/tag HTTP/1.0\n\n"
        string_val: ""
        string_val: "…"
        string_val: ""
        string_val: ""
        string_val: ""
        string_val: ""
        string_val: ""
        string_val: ""
        string_val: ""
        string_val: "GET /wp-content/categories/tag HTTP/1.0\n\n"
        string_val: ""
        string_val: ""
        string_val: "…"
        string_val: ""
        string_val: ""
        string_val: ""
        string_val: ""
        string_val: "GET /list/main/main HTTP/1.0\n\n"
        string_val: ""
        string_val: ""
        string_val: ""
        string_val: "…"
        string_val: ""
        string_val: ""
        string_val: ""
        string_val: ""
        string_val: ""
        string_val: ""
        string_val: ""
        string_val: "GET /tag/posts/tags HTTP/1.0\n\n"
        string_val: ""
        string_val: "…"
        string_val: ""
        string_val: "…"
        string_val: ""
        string_val: ""
        string_val: ""
        string_val: ""
        string_val: ""
        string_val: ""
        string_val: ""
        string_val: "GET /categories HTTP/1.0\n\n"
        string_val: ""
        string_val: "…"
        string_val: ""
        string_val: ""
        string_val: ""
        string_val: ""
        string_val: ""
        string_val: ""
        string_val: ""
        string_val: ""
        string_val: ""
        string_val: "GET /search HTTP/1.0\n\n"
        string_val: ""
        string_val: ""
        string_val: "GET /list/main/main HTTP/1.0\n\n"
        string_val: "…"
        string_val: ""
        string_val: ""
        string_val: "…"
        string_val: ""
        string_val: ""
        string_val: ""
        string_val: ""
        string_val: "…"
        string_val: ""
        string_val: ""
        string_val: ""
        string_val: ""
        string_val: ""
        string_val: "GET /categories HTTP/1.0\n\n"
        string_val: ""
        string_val: ""
        string_val: ""
        string_val: "…"
        string_val: ""
        string_val: ""
        string_val: ""
        string_val: "…"
        string_val: ""
        string_val: ""
        string_val: "GET /categories HTTP/1.0\n\n"
        string_val: ""
        string_val: ""
        string_val: ""
        string_val: "…"
        string_val: ""
        string_val: ""
        string_val: "…"
        string_val: ""
        string_val: ""
        string_val: ""
        string_val: ""
        string_val: ""
        string_val: ""
        string_val: ""
        string_val: "GET /list/list/tag HTTP/1.0\n\n"
        string_val: ""
        string_val: "…"
        string_val: ""
        string_val: "…"
        string_val: ""
        string_val: "…"
        string_val: ""
        string_val: ""
        string_val: ""
        string_val: ""
        string_val: ""
        string_val: ""
        string_val: ""
        string_val: "GET /list/main/main HTTP/1.0\n\n"
        string_val: ""
        string_val: "…"
        string_val: ""
        string_val: "…"
        string_val: ""
        string_val: ""
        string_val: ""
        string_val: ""
        string_val: ""
        string_val: ""
        string_val: ""
        string_val: "GET /tag/posts/tags HTTP/1.0\n\n"
        string_val: ""
        string_val: "…"
        string_val: ""
        string_val: "…"
        string_val: ""
        string_val: ""
        string_val: ""
        string_val: ""
        string_val: ""
        string_val: ""
        string_val: ""
        string_val: "GET /list/list/tag HTTP/1.0\n\n"
        string_val: ""
        string_val: "…"
        string_val: ""
        string_val: "…"
        string_val: ""
        string_val: ""
        string_val: ""
        string_val: ""
        string_val: ""
        string_val: ""
        string_val: ""
        string_val: "GET /search HTTP/1.0\n\n"
        string_val: ""
        string_val: "…"
        string_val: ""
        string_val: ""
        string_val: ""
        string_val: "…"
        string_val: ""
        string_val: ""
        string_val: "GET /wp-content/categories/tag HTTP/1.0\n\n"
        string_val: ""
        string_val: ""
        string_val: ""
        string_val: "…"
        string_val: ""
        string_val: ""
        string_val: "…"
        string_val: ""
        string_val: ""
        string_val: ""
        string_val: ""
        string_val: ""
        string_val: ""
        string_val: ""
        string_val: "GET /list/main/main HTTP/1.0\n\n"
        string_val: ""
        string_val: "…"
        string_val: ""
        string_val: ""
        string_val: "…"
        string_val: ""
        string_val: ""
        string_val: ""
        string_val: ""
        string_val: "GET /list/list/tag HTTP/1.0\n\n"
        string_val: ""
        string_val: ""
        string_val: ""
        string_val: "…"
        string_val: ""
        string_val: "…"
        string_val: ""
        string_val: ""
        string_val: ""
        string_val: ""
        string_val: ""
        string_val: ""
        string_val: ""
        string_val: "GET /category/search/categories HTTP/1.0\n\n"
        string_val: ""
        string_val: "…"
        string_val: ""
        string_val: "…"
        string_val: ""
        string_val: ""
        string_val: ""
        string_val: ""
        string_val: ""
        string_val: ""
        string_val: ""
        string_val: "GET /wp-content/categories/tag HTTP/1.0\n\n"
        string_val: ""
        string_val: "…"
        string_val: ""
        string_val: "never change address quality. Ability yes piece fund whom thought.</p></body></html>"
        string_val: ""
        string_val: ""
        string_val: ""
        string_val: ""
        string_val: ""
        string_val: ""
        string_val: ""
        string_val: "GET /wp-content/categories/tag HTTP/1.0\n\n"
        string_val: ""
        string_val: "…"
        string_val: ""
        string_val: ""
        string_val: ""
        string_val: ""
        string_val: ""
        string_val: ""
        string_val: ""
        string_val: "GET /list/list/tag HTTP/1.0\n\n"
        string_val: ""
        string_val: "…"
        string_val: ""
        string_val: ""
        string_val: ""
        string_val: ""
        string_val: ""
        string_val: ""
        string_val: ""
        string_val: "GET /search HTTP/1.0\n\n"
        string_val: ""
        string_val: ""
        string_val: ""
        string_val: "…"
        string_val: ""
        string_val: ""
        string_val: "GET /list/main/main HTTP/1.0\n\n"
        string_val: ""
        string_val: ""
        string_val: ""
        string_val: "…"
        string_val: ""
        string_val: ""
        string_val: ""
        string_val: ""
        string_val: ""
        string_val: ""
        string_val: ""
        string_val: ""
        string_val: ""
        string_val: "GET /search HTTP/1.0\n\n"
        string_val: ""
        string_val: ""
        string_val: ""
        string_val: ""
        string_val: "…"
        string_val: "GET /app/tag HTTP/1.0\n\n"
        string_val: ""
        string_val: ""
        string_val: ""
        string_val: ""
        string_val: "…"
        string_val: "…"
        string_val: "GET /list/main/main HTTP/1.0\n\n"
        string_val: ""
        string_val: ""
        string_val: ""
        string_val: ""
        string_val: "html>"
        string_val: "…"
        string_val: ""
        string_val: ""
        string_val: ""
        string_val: ""
        string_val: ""
        string_val: "…"
        string_val: ""
        string_val: ""
        string_val: ""
        string_val: ""
        string_val: ""
        string_val: ""
        string_val: ""
        string_val: ""
        string_val: ""
        string_val: ""
        string_val: ""
        string_val: ""
        string_val: "GET /app/tag HTTP/1.0\n\n"
        string_val: "GET /tag/posts/blog HTTP/1.0\n\n"
        string_val: ""
        string_val: ""
        string_val: "…"
        string_val: "…"
        string_val: ""
        string_val: ""
        string_val: ""
        string_val: "…"
        string_val: ""
        string_val: ""
        string_val: ""
        string_val: ""
        string_val: ""
        string_val: ""
        string_val: ""
        string_val: ""
        string_val: ""
        string_val: "GET /category/search/categories HTTP/1.0\n\n"
        string_val: ""
        string_val: "…"
        string_val: ""
        string_val: "…"
        string_val: ""
        string_val: ""
        string_val: ""
        string_val: ""
        string_val: ""
        string_val: ""
        string_val: ""
        string_val: ""
        string_val: "GET /tag/posts/blog HTTP/1.0\n\n"
        string_val: ""
        string_val: ""
        string_val: ""
        string_val: "…"
        string_val: "GET /posts/list/explore HTTP/1.0\n\n"
        string_val: ""
        string_val: ""
        string_val: ""
        string_val: ""
        string_val: ""
        string_val: "…"
        string_val: ""
        string_val: ""
        string_val: ""
        string_val: "GET /search HTTP/1.0\n\n"
        string_val: ""
        string_val: "…"
        string_val: ""
        string_val: ""
        string_val: "…"
        string_val: ""
        string_val: ""
        string_val: ""
        string_val: ""
        string_val: ""
        string_val: ""
        string_val: ""
        string_val: ""
        string_val: ""
        string_val: ""
        string_val: "GET /category/search/categories HTTP/1.0\n\n"
        string_val: ""
        string_val: "…"
        string_val: ""
        string_val: ""
        string_val: ""
        string_val: ""
        string_val: ""
        string_val: ""
        string_val: ""
        string_val: "GET /category/search/categories HTTP/1.0\n\n"
        string_val: ""
        string_val: "…"
        string_val: ""
        string_val: "…"
        string_val: ""
        string_val: ""
        string_val: ""
        string_val: ""
        string_val: ""
        string_val: ""
        string_val: ""
        string_val: ""
        string_val: ""
        string_val: "GET /app/tag HTTP/1.0\n\n"
        string_val: ""
        string_val: ""
        string_val: "GET /tag/posts/blog HTTP/1.0\n\n"
        string_val: "…"
        string_val: ""
        string_val: ""
        string_val: "…"
        string_val: ""
        string_val: ""
        string_val: ""
        string_val: "…"
        string_val: ""
        string_val: ""
        string_val: ""
        string_val: ""
        string_val: ""
        string_val: ""
        string_val: ""
        string_val: ""
        string_val: "GET /tag/posts/tags HTTP/1.0\n\n"
        string_val: ""
        string_val: "…"
        string_val: ""
        string_val: ""
        string_val: ""
        string_val: ""
        string_val: ""
        string_val: ""
        string_val: ""
        string_val: "GET /categories HTTP/1.0\n\n"
        string_val: ""
        string_val: "…"
        string_val: ""
        string_val: ""
        string_val: ""
        string_val: ""
        string_val: ""
        string_val: ""
        string_val: ""
        string_val: ""
        string_val: "GET /category/search/categories HTTP/1.0\n\n"
        string_val: ""
        string_val: ""
        string_val: ""
        string_val: "…"
        string_val: "GET /tag/posts/blog HTTP/1.0\n\n"
        string_val: ""
        string_val: ""
        string_val: ""
        string_val: "…"
        string_val: ""
        string_val: ""
        string_val: ""
        string_val: ""
        string_val: ""
        string_val: ""
        string_val: ""
        string_val: ""
        string_val: ""
        string_val: "GET /search HTTP/1.0\n\n"
        string_val: ""
        string_val: ""
        string_val: ""
        string_val: "…"
        string_val: ""
        string_val: ""
        string_val: "GET /category/search/categories HTTP/1.0\n\n"
        string_val: ""
        string_val: ""
        string_val: ""
        string_val: "…"
        string_val: ""
        string_val: ""
        string_val: "…"
        string_val: ""
        string_val: ""
        string_val: ""
        string_val: ""
        string_val: ""
        string_val: ""
        string_val: ""
        string_val: "GET /categories HTTP/1.0\n\n"
        string_val: ""
        string_val: "…"
        string_val: ""
        string_val: ""
        string_val: ""
        string_val: ""
        string_val: ""
        string_val: ""
        string_val: ""
        string_val: "GET /category/search/categories HTTP/1.0\n\n"
        string_val: ""
        string_val: ""
        string_val: ""
        string_val: "…"
        string_val: ""
        string_val: ""
        string_val: "GET /tag/posts/tags HTTP/1.0\n\n"
        string_val: ""
        string_val: ""
        string_val: ""
        string_val: "…"
        string_val: ""
        string_val: ""
        string_val: ""
        string_val: ""
        string_val: ""
        string_val: ""
        string_val: ""
        string_val: ""
        string_val: "GET /list/main/main HTTP/1.0\n\n"
        string_val: ""
        string_val: "…"
        string_val: ""
        string_val: "…"
        string_val: ""
        string_val: ""
        string_val: ""
        string_val: ""
        string_val: ""
        string_val: ""
        string_val: "GET /tag/posts/blog HTTP/1.0\n\n"
        string_val: ""
        string_val: ""
        string_val: "…"
        string_val: ""
        string_val: "…"
        string_val: ""
        string_val: ""
        string_val: ""
        string_val: ""
        string_val: ""
        string_val: ""
        string_val: ""
        string_val: "GET /category/search/categories HTTP/1.0\n\n"
        string_val: ""
        string_val: "…"
        string_val: ""
        string_val: "…"
        string_val: ""
        string_val: ""
        string_val: ""
        string_val: ""
        string_val: ""
        string_val: ""
        string_val: ""
        string_val: "GET /tag/posts/blog HTTP/1.0\n\n"
        string_val: ""
        string_val: "…"
        string_val: ""
        string_val: ""
        string_val: ""
        string_val: ""
        string_val: ""
        string_val: ""
        string_val: ""
        string_val: "GET /tag/posts/blog HTTP/1.0\n\n"
        string_val: ""
        string_val: "…"
        string_val: ""
        string_val: ""
        string_val: ""
        string_val: ""
        string_val: ""
        string_val: ""
        string_val: ""
        string_val: "GET /categories HTTP/1.0\n\n"
        string_val: ""
        string_val: "…"
        string_val: ""
        string_val: ""
        string_val: ""
        string_val: ""
        string_val: ""
        string_val: ""
        string_val: ""
        string_val: "GET /categories HTTP/1.0\n\n"
        string_val: ""
        string_val: "…"
        string_val: ""
        string_val: "…"
        string_val: ""
        string_val: ""
        string_val: ""
        string_val: ""
        string_val: ""
        string_val: ""
        string_val: ""
        string_val: "GET /categories HTTP/1.0\n\n"
        string_val: ""
        string_val: "…"
        string_val: ""
        string_val: ""
        string_val: ""
        string_val: ""
        string_val: ""
        string_val: ""
        string_val: ""
        string_val: "GET /wp-content/categories/tag HTTP/1.0\n\n"
        string_val: ""
        string_val: "…"
        string_val: ""
        string_val: ""
        string_val: ""
        string_val: "></html>"
        string_val: ""
        string_val: ""
        string_val: "GET /tag/posts/blog HTTP/1.0\n\n"
        string_val: ""
        string_val: ""
        string_val: ""
        string_val: ""
        string_val: ""
        string_val: "…"
        string_val: ""
        string_val: ""
        string_val: ""
        string_val: "GET /categories HTTP/1.0\n\n"
        string_val: ""
        string_val: ""
        string_val: ""
        string_val: "…"
        string_val: ""
        string_val: ""
        string_val: "…"
        string_val: ""
        string_val: ""
        string_val: ""
        string_val: ""
        string_val: ""
        string_val: ""
        string_val: ""
        string_val: ""
        string_val: ""
        string_val: ""
        string_val: "GET /list/main/main HTTP/1.0\n\n"
        string_val: "GET /list/main/main HTTP/1.0\n\n"
        string_val: ""
        string_val: ""
        string_val: "…"
        string_val: "…"
        string_val: ""
        string_val: ""
        string_val: ""
        string_val: "…"
        string_val: ""
        string_val: ""
        string_val: ""
        string_val: ""
        string_val: ""
        string_val: ""
        string_val: ""
        string_val: ""
        string_val: ""
        string_val: "GET /posts/list/explore HTTP/1.0\n\n"
        string_val: ""
        string_val: "…"
        string_val: ""
        string_val: "…"
        string_val: ""
        string_val: ""
        string_val: ""
        string_val: ""
        string_val: ""
        string_val: ""
        string_val: ""
        string_val: "GET /categories HTTP/1.0\n\n"
        string_val: ""
        string_val: "…"
        string_val: ""
        string_val: ""
        string_val: ""
        string_val: ""
        string_val: ""
        string_val: ""
        string_val: ""
        string_val: ""
        string_val: ""
        string_val: ""
        string_val: "GET /tag/posts/blog HTTP/1.0\n\n"
        string_val: "GET /list/list/tag HTTP/1.0\n\n"
        string_val: ""
        string_val: ""
        string_val: "…"
        string_val: "…"
        string_val: ""
        string_val: ""
        string_val: ""
        string_val: "…"
        string_val: ""
        string_val: ""
        string_val: ""
        string_val: ""
        string_val: ""
        string_val: ""
        string_val: ""
        string_val: ""
        string_val: ""
        string_val: "GET /posts/list/explore HTTP/1.0\n\n"
        string_val: ""
        string_val: "…"
        string_val: ""
        string_val: ""
        string_val: ""
        string_val: ""
        string_val: ""
        string_val: ""
        string_val: ""
        string_val: "GET /posts/list/explore HTTP/1.0\n\n"
        string_val: ""
        string_val: "…"
        string_val: ""
        string_val: "…"
        string_val: ""
        string_val: "></html>"
        string_val: ""
        string_val: ""
        string_val: ""
        string_val: ""
        string_val: ""
        string_val: ""
        string_val: ""
        string_val: "GET /app/tag HTTP/1.0\n\n"
        string_val: ""
        string_val: "…"
        string_val: ""
        string_val: ""
        string_val: "…"
        string_val: ""
        string_val: ""
        string_val: ""
        string_val: ""
        string_val: "GET /tag/posts/tags HTTP/1.0\n\n"
        string_val: ""
        string_val: ""
        string_val: ""
        string_val: "…"
        string_val: ""
        string_val: ""
        string_val: ""
        string_val: ""
        string_val: ""
        string_val: ""
        string_val: ""
        string_val: "GET /app/tag HTTP/1.0\n\n"
        string_val: ""
        string_val: "…"
        string_val: ""
        string_val: "…"
        string_val: ""
        string_val: ""
        string_val: ""
        string_val: ""
        string_val: ""
        string_val: ""
        string_val: ""
        string_val: "GET /tag/posts/tags HTTP/1.0\n\n"
        string_val: ""
        string_val: "…"
        string_val: ""
        string_val: "…"
        string_val: ""
        string_val: ""
        string_val: ""
        string_val: ""
        string_val: ""
        string_val: ""
        string_val: ""
        string_val: "GET /category/search/categories HTTP/1.0\n\n"
        string_val: ""
        string_val: "…"
        string_val: ""
        string_val: "…"
        string_val: ""
        string_val: ""
        string_val: ""
        string_val: ""
        string_val: ""
        string_val: ""
        string_val: ""
        string_val: "GET /tag/posts/blog HTTP/1.0\n\n"
        string_val: ""
        string_val: "…"
        string_val: ""
        string_val: ""
        string_val: ""
        string_val: ""
        string_val: ""
        string_val: ""
        string_val: ""
        string_val: "GET /list/main/main HTTP/1.0\n\n"
        string_val: ""
        string_val: "…"
        string_val: ""
        string_val: ""
        string_val: ""
        string_val: ""
        string_val: ""
        string_val: ""
        string_val: ""
        string_val: "GET /posts/list/explore HTTP/1.0\n\n"
        string_val: ""
        string_val: "…"
        string_val: ""
        string_val: "large eye public difference.</p></body></html>"
        string_val: ""
        string_val: ""
        string_val: ""
        string_val: ""
        string_val: ""
        string_val: ""
        string_val: ""
        string_val: "GET /list/list/tag HTTP/1.0\n\n"
        string_val: ""
        string_val: "…"
        string_val: ""
        string_val: "…"
        string_val: ""
        string_val: ""
        string_val: ""
        string_val: ""
        string_val: ""
        string_val: ""
        string_val: ""
        string_val: "GET /category/search/categories HTTP/1.0\n\n"
        string_val: ""
        string_val: "…"
        string_val: ""
        string_val: ""
        string_val: ""
        string_val: ""
        string_val: ""
        string_val: ""
        string_val: ""
        string_val: "GET /list/list/tag HTTP/1.0\n\n"
        string_val: ""
        string_val: ""
        string_val: ""
        string_val: "…"
        string_val: ""
        string_val: ""
        string_val: "GET /tag/posts/tags HTTP/1.0\n\n"
        string_val: ""
        string_val: ""
        string_val: ""
        string_val: "…"
        string_val: ""
        string_val: ""
        string_val: ""
        string_val: ""
        string_val: ""
        string_val: ""
        string_val: ""
        string_val: "GET /tag/posts/blog HTTP/1.0\n\n"
        string_val: ""
        string_val: ""
        string_val: "…"
        string_val: ""
        string_val: "…"
        string_val: ""
        string_val: ""
        string_val: ""
        string_val: ""
        string_val: ""
        string_val: ""
        string_val: ""
        string_val: "GET /tag/posts/tags HTTP/1.0\n\n"
        string_val: ""
        string_val: "…"
        string_val: ""
        string_val: ""
        string_val: ""
        string_val: ""
        string_val: ""
        string_val: ""
        string_val: ""
        string_val: "GET /list/main/main HTTP/1.0\n\n"
        string_val: ""
        string_val: "…"
        string_val: ""
        string_val: ""
        string_val: ""
        string_val: ""
        string_val: ""
        string_val: ""
        string_val: ""
        string_val: "GET /list/main/main HTTP/1.0\n\n"
        string_val: ""
        string_val: "…"
        string_val: ""
        string_val: ""
        string_val: ""
        string_val: ""
        string_val: ""
        string_val: ""
        string_val: ""
        string_val: "GET /tag/posts/blog HTTP/1.0\n\n"
        string_val: ""
        string_val: "…"
        string_val: ""
        string_val: ""
        string_val: ""
        string_val: ""
        string_val: ""
        string_val: ""
        string_val: ""
        string_val: "GET /app/tag HTTP/1.0\n\n"
        string_val: ""
        string_val: "…"
        string_val: ""
        string_val: "…"
        string_val: ""
        string_val: ""
        string_val: ""
        string_val: ""
        string_val: ""
        string_val: ""
        string_val: ""
        string_val: "GET /tag/posts/tags HTTP/1.0\n\n"
        string_val: ""
        string_val: ""
        string_val: "…"
        string_val: ""
        string_val: ""
        string_val: ""
        string_val: ""
        string_val: "GET /tag/posts/blog HTTP/1.0\n\n"
        string_val: ""
        string_val: ""
        string_val: ""
        string_val: "…"
        string_val: ""
        string_val: ""
        string_val: ""
        string_val: ""
        string_val: ""
        string_val: ""
        string_val: ""
        string_val: "GET /categories HTTP/1.0\n\n"
        string_val: ""
        string_val: "…"
        string_val: ""
        string_val: "ion range skill exist yes first culture.</p></body></html>"
        string_val: ""
        string_val: ""
        string_val: ""
        string_val: ""
        string_val: ""
        string_val: ""
        string_val: ""
        string_val: "GET /wp-content/categories/tag HTTP/1.0\n\n"
        string_val: ""
        string_val: "…"
        string_val: ""
        string_val: "…"
        string_val: ""
        string_val: ""
        string_val: ""
        string_val: ""
        string_val: ""
        string_val: ""
        string_val: ""
        string_val: "GET /wp-content/categories/tag HTTP/1.0\n\n"
        string_val: ""
        string_val: "…"
        string_val: ""
        string_val: ""
        string_val: "…"
        string_val: ""
        string_val: ""
        string_val: ""
        string_val: ""
        string_val: "GET /app/tag HTTP/1.0\n\n"
        string_val: ""
        string_val: ""
        string_val: ""
        string_val: "…"
        string_val: ""
        string_val: ""
        string_val: ""
        string_val: ""
        string_val: ""
        string_val: ""
        string_val: ""
        string_val: "GET /tag/posts/blog HTTP/1.0\n\n"
        string_val: ""
        string_val: "…"
        string_val: ""
        string_val: "…"
        string_val: ""
        string_val: ""
        string_val: ""
        string_val: ""
        string_val: ""
        string_val: ""
        string_val: ""
        string_val: "GET /posts/list/explore HTTP/1.0\n\n"
        string_val: ""
        string_val: ""
        string_val: ""
        string_val: ""
        string_val: ""
        string_val: "…"
        string_val: ""
        string_val: ""
        string_val: ""
        string_val: "GET /tag/posts/blog HTTP/1.0\n\n"
        string_val: "GET /category/search/categories HTTP/1.0\n\n"
        string_val: ""
        string_val: ""
        string_val: ""
        string_val: ""
        string_val: "…"
        string_val: "…"
        string_val: ""
        string_val: ""
        string_val: ""
        string_val: ""
        string_val: "…"
        string_val: ""
        string_val: ""
        string_val: ""
        string_val: ""
        string_val: ""
        string_val: ""
        string_val: ""
        string_val: ""
        string_val: ""
        string_val: "GET /categories HTTP/1.0\n\n"
        string_val: ""
        string_val: "…"
        string_val: ""
        string_val: "…"
        string_val: ""
        string_val: ""
        string_val: ""
        string_val: ""
        string_val: ""
        string_val: ""
        string_val: ""
        string_val: "GET /list/list/tag HTTP/1.0\n\n"
        string_val: ""
        string_val: ""
        string_val: ""
        string_val: "…"
        string_val: ""
        string_val: ""
        string_val: "GET /list/main/main HTTP/1.0\n\n"
        string_val: ""
        string_val: ""
        string_val: ""
        string_val: "…"
        string_val: ""
        string_val: ""
        string_val: ""
        string_val: ""
        string_val: ""
        string_val: ""
        string_val: ""
        string_val: ""
        string_val: "GET /tag/posts/blog HTTP/1.0\n\n"
        string_val: ""
        string_val: "…"
        string_val: ""
        string_val: "…"
        string_val: ""
        string_val: ""
        string_val: ""
        string_val: ""
        string_val: ""
        string_val: ""
        string_val: ""
        string_val: "GET /posts/list/explore HTTP/1.0\n\n"
        string_val: ""
        string_val: ""
        string_val: "…"
        string_val: ""
        string_val: ""
        string_val: ""
        string_val: "…"
        string_val: "GET /search HTTP/1.0\n\n"
        string_val: ""
        string_val: ""
        string_val: ""
        string_val: "…"
        string_val: ""
        string_val: ""
        string_val: ""
        string_val: ""
        string_val: ""
        string_val: ""
        string_val: ""
        string_val: ""
        string_val: ""
        string_val: "GET /tag/posts/tags HTTP/1.0\n\n"
        string_val: ""
        string_val: "…"
        string_val: ""
        string_val: ""
        string_val: ""
        string_val: ""
        string_val: ""
        string_val: ""
        string_val: ""
        string_val: "GET /search HTTP/1.0\n\n"
        string_val: ""
        string_val: "…"
        string_val: ""
        string_val: ""
        string_val: ""
        string_val: ""
        string_val: ""
        string_val: ""
        string_val: ""
        string_val: "GET /list/list/tag HTTP/1.0\n\n"
        string_val: ""
        string_val: "…"
        string_val: ""
        string_val: ""
        string_val: ""
        string_val: ""
        string_val: ""
        string_val: ""
        string_val: ""
        string_val: "GET /search HTTP/1.0\n\n"
        string_val: ""
        string_val: "…"
        string_val: ""
        string_val: "…"
        string_val: ""
        string_val: ""
        string_val: ""
        string_val: ""
        string_val: ""
        string_val: ""
        string_val: ""
        string_val: "GET /tag/posts/tags HTTP/1.0\n\n"
        string_val: ""
        string_val: "…"
        string_val: ""
        string_val: ""
        string_val: ""
        string_val: ""
        string_val: ""
        string_val: ""
        string_val: ""
        string_val: "GET /list/list/tag HTTP/1.0\n\n"
        string_val: ""
        string_val: "…"
        string_val: ""
        string_val: "…"
        string_val: ""
        string_val: ""
        string_val: ""
        string_val: ""
        string_val: ""
        string_val: ""
        string_val: ""
        string_val: "GET /wp-content/categories/tag HTTP/1.0\n\n"
        string_val: ""
        string_val: "…"
        string_val: ""
        string_val: "…"
        string_val: ""
        string_val: ""
        string_val: ""
        string_val: ""
        string_val: ""
        string_val: ""
        string_val: ""
        string_val: "GET /search HTTP/1.0\n\n"
        string_val: ""
        string_val: "…"
        string_val: ""
        string_val: "…"
        string_val: ""
        string_val: ""
        string_val: ""
        string_val: ""
        string_val: ""
        string_val: ""
        string_val: ""
        string_val: "GET /category/search/categories HTTP/1.0\n\n"
        string_val: ""
        string_val: ""
        string_val: ""
        string_val: "…"
        string_val: ""
        string_val: ""
        string_val: "GET /categories HTTP/1.0\n\n"
        string_val: ""
        string_val: ""
        string_val: ""
        string_val: "…"
        string_val: ""
        string_val: ""
        string_val: ""
        string_val: ""
        string_val: ""
        string_val: ""
        string_val: ""
        string_val: ""
        string_val: "GET /app/tag HTTP/1.0\n\n"
        string_val: ""
        string_val: "…"
        string_val: ""
        string_val: ""
        string_val: ""
        string_val: ""
        string_val: ""
        string_val: ""
        string_val: ""
        string_val: "GET /list/main/main HTTP/1.0\n\n"
        string_val: ""
        string_val: "…"
        string_val: ""
        string_val: ""
        string_val: ""
        string_val: ""
        string_val: ""
        string_val: ""
        string_val: ""
        string_val: "GET /list/list/tag HTTP/1.0\n\n"
        string_val: ""
        string_val: "…"
        string_val: ""
        string_val: "…"
        string_val: ""
        string_val: ""
        string_val: ""
        string_val: ""
        string_val: ""
        string_val: ""
        string_val: ""
        string_val: "GET /search HTTP/1.0\n\n"
        string_val: ""
        string_val: "…"
        string_val: ""
        string_val: ""
        string_val: ""
        string_val: ""
        string_val: ""
        string_val: ""
        string_val: ""
        string_val: "GET /app/tag HTTP/1.0\n\n"
        string_val: ""
        string_val: "…"
        string_val: ""
        string_val: "…"
        string_val: ""
        string_val: "…"
        string_val: ""
        string_val: ""
        string_val: ""
        string_val: ""
        string_val: ""
        string_val: ""
        string_val: ""
        string_val: "GET /list/list/tag HTTP/1.0\n\n"
        string_val: ""
        string_val: "…"
        string_val: ""
        string_val: ""
        string_val: ""
        string_val: ""
        string_val: ""
        string_val: ""
        string_val: ""
        string_val: "GET /list/main/main HTTP/1.0\n\n"
        string_val: ""
        string_val: ""
        string_val: "…"
        string_val: ""
        string_val: ""
        string_val: ""
        string_val: ""
        string_val: ""
        string_val: "GET /list/list/tag HTTP/1.0\n\n"
        string_val: ""
        string_val: ""
        string_val: ""
        string_val: ""
        string_val: ""
        string_val: "…"
        string_val: "GET /app/tag HTTP/1.0\n\n"
        string_val: ""
        string_val: ""
        string_val: "…"
        string_val: "…"
        string_val: ""
        string_val: ""
        string_val: ""
        string_val: ""
        string_val: ""
        string_val: ""
        string_val: ""
        string_val: ""
        string_val: ""
        string_val: ""
        string_val: ""
        string_val: "GET /list/list/tag HTTP/1.0\n\n"
        string_val: ""
        string_val: "…"
        string_val: ""
        string_val: "…"
        string_val: ""
        string_val: ""
        string_val: ""
        string_val: ""
        string_val: ""
        string_val: ""
        string_val: ""
        string_val: "GET /wp-content/categories/tag HTTP/1.0\n\n"
        string_val: ""
        string_val: "…"
        string_val: ""
        string_val: ""
        string_val: ""
        string_val: ""
        string_val: ""
        string_val: ""
        string_val: ""
        string_val: ""
        string_val: "GET /tag/posts/blog HTTP/1.0\n\n"
        string_val: ""
        string_val: ""
        string_val: ""
        string_val: "…"
        string_val: "GET /list/list/tag HTTP/1.0\n\n"
        string_val: ""
        string_val: ""
        string_val: ""
        string_val: "…"
        string_val: ""
        string_val: ""
        string_val: ""
        string_val: ""
        string_val: "…"
        string_val: ""
        string_val: ""
        string_val: ""
        string_val: ""
        string_val: "GET /tag/posts/blog HTTP/1.0\n\n"
        string_val: ""
        string_val: ""
        string_val: ""
        string_val: "…"
        string_val: ""
        string_val: ""
        string_val: ""
        string_val: ""
        string_val: ""
        string_val: ""
        string_val: ""
        string_val: "GET /wp-content/categories/tag HTTP/1.0\n\n"
        string_val: ""
        string_val: ""
        string_val: ""
        string_val: "…"
        string_val: ""
        string_val: ""
        string_val: "GET /list/main/main HTTP/1.0\n\n"
        string_val: "…"
        string_val: ""
        string_val: ""
        string_val: "…"
        string_val: ""
        string_val: ""
        string_val: ""
        string_val: "…"
        string_val: ""
        string_val: ""
        string_val: ""
        string_val: ""
        string_val: ""
        string_val: ""
        string_val: ""
        string_val: "GET /categories HTTP/1.0\n\n"
        string_val: ""
        string_val: ""
        string_val: "…"
        string_val: ""
        string_val: ""
        string_val: ""
        string_val: ""
        string_val: ""
        string_val: ""
        string_val: ""
        string_val: "GET /app/tag HTTP/1.0\n\n"
        string_val: ""
        string_val: "…"
        string_val: ""
        string_val: ""
        string_val: ""
        string_val: ""
        string_val: ""
        string_val: ""
        string_val: ""
        string_val: "GET /category/search/categories HTTP/1.0\n\n"
        string_val: ""
        string_val: "…"
        string_val: ""
        string_val: "…"
        string_val: ""
        string_val: ""
        string_val: ""
        string_val: ""
        string_val: ""
        string_val: ""
        string_val: ""
        string_val: "GET /tag/posts/tags HTTP/1.0\n\n"
        string_val: ""
        string_val: "…"
        string_val: ""
        string_val: ""
        string_val: "…"
        string_val: ""
        string_val: ""
        string_val: ""
        string_val: ""
        string_val: ""
        string_val: "GET /list/main/main HTTP/1.0\n\n"
        string_val: ""
        string_val: ""
        string_val: ""
        string_val: ""
        string_val: ""
        string_val: "…"
        string_val: "GET /app/tag HTTP/1.0\n\n"
        string_val: ""
        string_val: ""
        string_val: ""
        string_val: "…"
        string_val: ""
        string_val: ""
        string_val: ""
        string_val: "…"
        string_val: ""
        string_val: ""
        string_val: ""
        string_val: ""
        string_val: ""
        string_val: ""
        string_val: ""
        string_val: "GET /tag/posts/blog HTTP/1.0\n\n"
        string_val: ""
        string_val: "…"
        string_val: ""
        string_val: "…"
        string_val: ""
        string_val: "…"
        string_val: ""
        string_val: ""
        string_val: ""
        string_val: ""
        string_val: ""
        string_val: ""
        string_val: ""
        string_val: "GET /categories HTTP/1.0\n\n"
        string_val: ""
        string_val: "…"
        string_val: ""
        string_val: "…"
        string_val: ""
        string_val: ""
        string_val: ""
        string_val: ""
        string_val: ""
        string_val: ""
        string_val: ""
        string_val: "GET /posts/list/explore HTTP/1.0\n\n"
        string_val: ""
        string_val: ""
        string_val: "…"
        string_val: ""
        string_val: ""
        string_val: ""
        string_val: ""
        string_val: "GET /wp-content/categories/tag HTTP/1.0\n\n"
        string_val: ""
        string_val: ""
        string_val: ""
        string_val: "…"
        string_val: ""
        string_val: "…"
        string_val: ""
        string_val: ""
        string_val: ""
        string_val: ""
        string_val: ""
        string_val: ""
        string_val: ""
        string_val: "GET /category/search/categories HTTP/1.0\n\n"
        string_val: ""
        string_val: "…"
        string_val: ""
        string_val: ""
        string_val: ""
        string_val: ""
        string_val: ""
        string_val: ""
        string_val: ""
        string_val: "GET /tag/posts/tags HTTP/1.0\n\n"
        string_val: ""
        string_val: "…"
        string_val: ""
        string_val: ""
        string_val: ""
        string_val: ""
        string_val: ""
        string_val: ""
        string_val: ""
        string_val: "GET /posts/list/explore HTTP/1.0\n\n"
        string_val: ""
        string_val: "…"
        string_val: ""
        string_val: ""
        string_val: ""
        string_val: ""
        string_val: ""
        string_val: ""
        string_val: ""
        string_val: "GET /categories HTTP/1.0\n\n"
        string_val: ""
        string_val: "…"
        string_val: ""
        string_val: ""
        string_val: ""
        string_val: ""
        string_val: ""
        string_val: ""
        string_val: ""
        string_val: "GET /app/tag HTTP/1.0\n\n"
        string_val: ""
        string_val: "…"
        string_val: ""
        string_val: "…"
        string_val: ""
        string_val: ""
        string_val: ""
        string_val: ""
        string_val: ""
        string_val: ""
        string_val: ""
        string_val: "GET /categories HTTP/1.0\n\n"
        string_val: ""
        string_val: "…"
        string_val: ""
        string_val: ""
        string_val: ""
        string_val: ""
        string_val: ""
        string_val: ""
        string_val: ""
        string_val: "GET /category/search/categories HTTP/1.0\n\n"
        string_val: ""
        string_val: "…"
        string_val: ""
        string_val: "…"
        string_val: ""
        string_val: ""
        string_val: ""
        string_val: ""
        string_val: ""
        string_val: ""
        string_val: ""
        string_val: "GET /search HTTP/1.0\n\n"
        string_val: ""
        string_val: ""
        string_val: "…"
        string_val: ""
        string_val: ""
        string_val: ""
        string_val: "…"
        string_val: "GET /search HTTP/1.0\n\n"
        string_val: ""
        string_val: ""
        string_val: ""
        string_val: "…"
        string_val: ""
        string_val: ""
        string_val: ""
        string_val: ""
        string_val: ""
        string_val: ""
        string_val: ""
        string_val: ""
        string_val: ""
        string_val: "GET /list/main/main HTTP/1.0\n\n"
        string_val: ""
        string_val: "…"
        string_val: ""
        string_val: ""
        string_val: ""
        string_val: ""
        string_val: ""
        string_val: ""
        string_val: ""
        string_val: "GET /categories HTTP/1.0\n\n"
        string_val: ""
        string_val: "…"
        string_val: ""
        string_val: "…"
        string_val: ""
        string_val: ""
        string_val: ""
        string_val: ""
        string_val: ""
        string_val: ""
        string_val: ""
        string_val: "GET /tag/posts/tags HTTP/1.0\n\n"
        string_val: ""
        string_val: "…"
        string_val: ""
        string_val: "…"
        string_val: ""
        string_val: ""
        string_val: ""
        string_val: ""
        string_val: ""
        string_val: ""
        string_val: ""
        string_val: "GET /posts/list/explore HTTP/1.0\n\n"
        string_val: ""
        string_val: ""
        string_val: "…"
        string_val: ""
        string_val: ""
        string_val: ""
        string_val: ""
        string_val: "GET /category/search/categories HTTP/1.0\n\n"
        string_val: ""
        string_val: ""
        string_val: ""
        string_val: "…"
        string_val: ""
        string_val: "…"
        string_val: ""
        string_val: ""
        string_val: ""
        string_val: ""
        string_val: ""
        string_val: ""
        string_val: ""
        string_val: "GET /list/list/tag HTTP/1.0\n\n"
        string_val: ""
        string_val: ""
        string_val: ""
        string_val: "…"
        string_val: ""
        string_val: ""
        string_val: "GET /app/tag HTTP/1.0\n\n"
        string_val: "…"
        string_val: ""
        string_val: ""
        string_val: "…"
        string_val: ""
        string_val: ""
        string_val: ""
        string_val: ""
        string_val: ""
        string_val: ""
        string_val: ""
        string_val: ""
        string_val: ""
        string_val: ""
        string_val: "GET /tag/posts/blog HTTP/1.0\n\n"
        string_val: ""
        string_val: "…"
        string_val: ""
        string_val: ""
        string_val: ""
        string_val: ""
        string_val: ""
        string_val: ""
        string_val: ""
        string_val: "GET /category/search/categories HTTP/1.0\n\n"
        string_val: ""
        string_val: "…"
        string_val: ""
        string_val: ""
        string_val: ""
        string_val: ""
        string_val: ""
        string_val: ""
        string_val: ""
        string_val: "GET /list/list/tag HTTP/1.0\n\n"
        string_val: ""
        string_val: "…"
        string_val: ""
        string_val: "…"
        string_val: ""
        string_val: ""
        string_val: ""
        string_val: ""
        string_val: ""
        string_val: ""
        string_val: ""
        string_val: "GET /tag/posts/tags HTTP/1.0\n\n"
        string_val: ""
        string_val: "…"
        string_val: ""
        string_val: "…"
        string_val: ""
        string_val: ""
        string_val: ""
        string_val: ""
        string_val: ""
        string_val: ""
        string_val: ""
        string_val: "GET /posts/list/explore HTTP/1.0\n\n"
        string_val: ""
        string_val: "…"
        string_val: ""
        string_val: "…"
        string_val: ""
        string_val: ""
        string_val: ""
        string_val: ""
        string_val: ""
        string_val: ""
        string_val: ""
        string_val: "GET /tag/posts/tags HTTP/1.0\n\n"
        string_val: ""
        string_val: "…"
        string_val: ""
        string_val: "…"
        string_val: ""
        string_val: ""
        string_val: ""
        string_val: ""
        string_val: ""
        string_val: ""
        string_val: ""
        string_val: "GET /list/main/main HTTP/1.0\n\n"
        string_val: ""
        string_val: "…"
        string_val: ""
        string_val: ""
        string_val: ""
        string_val: ""
        string_val: ""
        string_val: ""
        string_val: ""
        string_val: "GET /tag/posts/tags HTTP/1.0\n\n"
        string_val: ""
        string_val: "…"
        string_val: ""
        string_val: "…"
        string_val: ""
        string_val: " return possible face.</p></body></html>"
        string_val: ""
        string_val: ""
        string_val: ""
        string_val: ""
        string_val: ""
        string_val: ""
        string_val: ""
        string_val: "GET /list/main/main HTTP/1.0\n\n"
        string_val: ""
        string_val: "…"
        string_val: ""
        string_val: ""
        string_val: ""
        string_val: ""
        string_val: ""
        string_val: ""
        string_val: ""
        string_val: "GET /category/search/categories HTTP/1.0\n\n"
        string_val: ""
        string_val: "…"
        string_val: ""
        string_val: ""
        string_val: ""
        string_val: ""
        string_val: ""
        string_val: ""
        string_val: ""
        string_val: "GET /categories HTTP/1.0\n\n"
        string_val: ""
        string_val: "…"
        string_val: ""
        string_val: "…"
        string_val: ""
        string_val: ""
        string_val: ""
        string_val: ""
        string_val: ""
        string_val: ""
        string_val: ""
        string_val: "GET /tag/posts/tags HTTP/1.0\n\n"
        string_val: ""
        string_val: "…"
        string_val: ""
        string_val: ""
        string_val: "…"
        string_val: ""
        string_val: ""
        string_val: ""
        string_val: ""
        string_val: "GET /list/main/main HTTP/1.0\n\n"
        string_val: ""
        string_val: ""
        string_val: ""
        string_val: "…"
        string_val: ""
        string_val: ""
        string_val: ""
        string_val: ""
        string_val: ""
        string_val: ""
        string_val: ""
        string_val: ""
        string_val: ""
        string_val: ""
        string_val: ""
        string_val: "GET /category/search/categories HTTP/1.0\n\n"
        string_val: ""
        string_val: ""
        string_val: ""
        string_val: "GET /list/list/tag HTTP/1.0\n\n"
        string_val: "GET /wp-content/categories/tag HTTP/1.0\n\n"
        string_val: "…"
        string_val: ""
        string_val: ""
        string_val: ""
        string_val: "…"
        string_val: "…"
        string_val: ""
        string_val: ""
        string_val: ""
        string_val: ""
        string_val: ""
        string_val: ""
        string_val: "…"
        string_val: ""
        string_val: ""
        string_val: ""
        string_val: ""
        string_val: ""
        string_val: ""
        string_val: ""
        string_val: "GET /category/search/categories HTTP/1.0\n\n"
        string_val: ""
        string_val: ""
        string_val: ""
        string_val: "…"
        string_val: ""
        string_val: "…"
        string_val: ""
        string_val: ""
        string_val: ""
        string_val: ""
        string_val: ""
        string_val: ""
        string_val: ""
        string_val: "GET /tag/posts/tags HTTP/1.0\n\n"
        string_val: ""
        string_val: ""
        string_val: ""
        string_val: "…"
        string_val: ""
        string_val: ""
        string_val: ""
        string_val: "GET /posts/list/explore HTTP/1.0\n\n"
        string_val: ""
        string_val: "…"
        string_val: ""
        string_val: ""
        string_val: ""
        string_val: "…"
        string_val: "GET /posts/list/explore HTTP/1.0\n\n"
        string_val: ""
        string_val: ""
        string_val: ""
        string_val: ""
        string_val: ""
        string_val: "…"
        string_val: ""
        string_val: ""
        string_val: ""
        string_val: ""
        string_val: "…"
        string_val: ""
        string_val: ""
        string_val: ""
        string_val: ""
        string_val: ""
        string_val: ""
        string_val: ""
        string_val: "GET /search HTTP/1.0\n\n"
        string_val: ""
        string_val: "…"
        string_val: ""
        string_val: ""
        string_val: ""
        string_val: ""
        string_val: ""
        string_val: ""
        string_val: ""
        string_val: "GET /search HTTP/1.0\n\n"
        string_val: ""
        string_val: "…"
        string_val: ""
        string_val: "…"
        string_val: ""
        string_val: ""
        string_val: ""
        string_val: ""
        string_val: ""
        string_val: ""
        string_val: ""
        string_val: ""
        string_val: "GET /list/main/main HTTP/1.0\n\n"
        string_val: ""
        string_val: ""
        string_val: ""
        string_val: "…"
        string_val: "GET /list/list/tag HTTP/1.0\n\n"
        string_val: ""
        string_val: ""
        string_val: ""
        string_val: "…"
        string_val: ""
        string_val: ""
        string_val: ""
        string_val: ""
        string_val: ""
        string_val: ""
        string_val: ""
        string_val: ""
        string_val: "GET /tag/posts/blog HTTP/1.0\n\n"
        string_val: ""
        string_val: ""
        string_val: "…"
        string_val: ""
        string_val: "…"
        string_val: ""
        string_val: ""
        string_val: ""
        string_val: ""
        string_val: ""
        string_val: ""
        string_val: ""
        string_val: "GET /list/list/tag HTTP/1.0\n\n"
        string_val: ""
        string_val: "…"
        string_val: ""
        string_val: "…"
        string_val: ""
        string_val: ""
        string_val: ""
        string_val: ""
        string_val: ""
        string_val: ""
        string_val: ""
        string_val: "GET /search HTTP/1.0\n\n"
        string_val: ""
        string_val: "…"
        string_val: ""
        string_val: ""
        string_val: ""
        string_val: ""
        string_val: ""
        string_val: ""
        string_val: ""
        string_val: "GET /posts/list/explore HTTP/1.0\n\n"
        string_val: ""
        string_val: "…"
        string_val: ""
        string_val: "…"
        string_val: ""
        string_val: "vice drop glass mouth.</p></body></html>"
        string_val: ""
        string_val: ""
        string_val: ""
        string_val: ""
        string_val: ""
        string_val: ""
        string_val: ""
        string_val: ""
        string_val: ""
        string_val: ""
        string_val: "GET /categories HTTP/1.0\n\n"
        string_val: "GET /list/list/tag HTTP/1.0\n\n"
        string_val: ""
        string_val: ""
        string_val: "…"
        string_val: "…"
        string_val: ""
        string_val: ""
        string_val: ""
        string_val: "…"
        string_val: ""
        string_val: ""
        string_val: ""
        string_val: ""
        string_val: ""
        string_val: ""
        string_val: ""
        string_val: ""
        string_val: ""
        string_val: "GET /list/main/main HTTP/1.0\n\n"
        string_val: ""
        string_val: "…"
        string_val: ""
        string_val: "…"
        string_val: ""
        string_val: ""
        string_val: ""
        string_val: ""
        string_val: ""
        string_val: ""
        string_val: ""
        string_val: ""
        string_val: ""
        string_val: "GET /categories HTTP/1.0\n\n"
        string_val: ""
        string_val: ""
        string_val: "GET /tag/posts/tags HTTP/1.0\n\n"
        string_val: "…"
        string_val: ""
        string_val: ""
        string_val: "…"
        string_val: ""
        string_val: ""
        string_val: ""
        string_val: "…"
        string_val: ""
        string_val: ""
        string_val: ""
        string_val: ""
        string_val: ""
        string_val: ""
        string_val: ""
        string_val: ""
        string_val: "GET /wp-content/categories/tag HTTP/1.0\n\n"
        string_val: ""
        string_val: "…"
        string_val: ""
        string_val: "…"
        string_val: ""
        string_val: ""
        string_val: ""
        string_val: ""
        string_val: ""
        string_val: ""
        string_val: ""
        string_val: "GET /search HTTP/1.0\n\n"
        string_val: ""
        string_val: "…"
        string_val: ""
        string_val: ""
        string_val: ""
        string_val: "…"
        string_val: ""
        string_val: ""
        string_val: "GET /search HTTP/1.0\n\n"
        string_val: "r population girl hit. Own unit hit.</p></body></html>"
        string_val: ""
        string_val: ""
        string_val: "…"
        string_val: ""
        string_val: ""
        string_val: ""
        string_val: ""
        string_val: ""
        string_val: ""
        string_val: ""
        string_val: ""
        string_val: ""
        string_val: ""
        string_val: "GET /list/list/tag HTTP/1.0\n\n"
        string_val: ""
        string_val: "…"
        string_val: ""
        string_val: ""
        string_val: ""
        string_val: ""
        string_val: ""
        string_val: ""
        string_val: "GET /search HTTP/1.0\n\n"
        string_val: ""
        string_val: ""
        string_val: "…"
        string_val: ""
        string_val: "…"
        string_val: ""
        string_val: ""
        string_val: ""
        string_val: ""
        string_val: ""
        string_val: ""
        string_val: ""
        string_val: "GET /app/tag HTTP/1.0\n\n"
        string_val: ""
        string_val: "…"
        string_val: ""
        string_val: ""
        string_val: "very according. Certainly yes explain size factor. Store huge bed tell.</p></body></html>"
        string_val: ""
        string_val: ""
        string_val: ""
        string_val: ""
        string_val: "GET /tag/posts/blog HTTP/1.0\n\n"
        string_val: ""
        string_val: ""
        string_val: ""
        string_val: ""
        string_val: ""
        string_val: "…"
        string_val: ""
        string_val: ""
        string_val: "GET /list/list/tag HTTP/1.0\n\n"
        string_val: ""
        string_val: ""
        string_val: ""
        string_val: "…"
        string_val: ""
        string_val: ""
        string_val: ""
        string_val: ""
        string_val: ""
        string_val: ""
        string_val: ""
        string_val: ""
        string_val: "GET /tag/posts/blog HTTP/1.0\n\n"
        string_val: ""
        string_val: "…"
        string_val: ""
        string_val: ""
        string_val: ""
        string_val: ""
        string_val: ""
        string_val: ""
        string_val: ""
        string_val: "GET /list/list/tag HTTP/1.0\n\n"
        string_val: ""
        string_val: ""
        string_val: ""
        string_val: "…"
        string_val: ""
        string_val: ""
        string_val: "GET /list/list/tag HTTP/1.0\n\n"
        string_val: ""
        string_val: ""
        string_val: ""
        string_val: "…"
        string_val: ""
        string_val: ""
        string_val: ""
        string_val: ""
        string_val: ""
        string_val: ""
        string_val: ""
        string_val: ""
        string_val: "GET /wp-content/categories/tag HTTP/1.0\n\n"
        string_val: ""
        string_val: ""
        string_val: ""
        string_val: "…"
        string_val: ""
        string_val: ""
        string_val: "GET /posts/list/explore HTTP/1.0\n\n"
        string_val: ""
        string_val: ""
        string_val: ""
        string_val: "…"
        string_val: ""
        string_val: ""
        string_val: "…"
        string_val: ""
        string_val: ""
        string_val: ""
        string_val: ""
        string_val: ""
        string_val: ""
        string_val: ""
        string_val: "GET /tag/posts/blog HTTP/1.0\n\n"
        string_val: ""
        string_val: "…"
        string_val: ""
        string_val: ""
        string_val: ""
        string_val: ""
      }
    }
  }
}
node {
  name: "tensors/component_1"
  op: "Const"
  device: "/device:CPU:0"
  attr {
    key: "_output_shapes"
    value {
      list {
        shape {
          dim {
            size: 4423
          }
        }
      }
    }
  }
  attr {
    key: "dtype"
    value {
      type: DT_STRING
    }
  }
  attr {
    key: "value"
    value {
      tensor {
        dtype: DT_STRING
        tensor_shape {
          dim {
            size: 4423
          }
        }
        string_val: "8.8.8.8"
        string_val: "84.67.220.251"
        string_val: "8.8.8.8"
        string_val: "8.8.8.8"
        string_val: "84.67.220.251"
        string_val: "84.67.220.251"
        string_val: "8.8.8.8"
        string_val: "8.8.8.8"
        string_val: "84.67.220.251"
        string_val: "8.8.8.8"
        string_val: "8.8.8.8"
        string_val: "234.206.175.153"
        string_val: "8.8.8.8"
        string_val: "8.8.8.8"
        string_val: "234.206.175.153"
        string_val: "234.206.175.153"
        string_val: "8.8.8.8"
        string_val: "234.206.175.153"
        string_val: "8.8.8.8"
        string_val: "8.8.8.8"
        string_val: "234.206.175.153"
        string_val: "8.8.8.8"
        string_val: "8.8.8.8"
        string_val: "84.67.220.251"
        string_val: "8.8.8.8"
        string_val: "8.8.8.8"
        string_val: "84.67.220.251"
        string_val: "84.67.220.251"
        string_val: "8.8.8.8"
        string_val: "84.67.220.251"
        string_val: "8.8.8.8"
        string_val: "8.8.8.8"
        string_val: "84.67.220.251"
        string_val: "8.8.8.8"
        string_val: "8.8.8.8"
        string_val: "144.217.148.116"
        string_val: "8.8.8.8"
        string_val: "8.8.8.8"
        string_val: "144.217.148.116"
        string_val: "144.217.148.116"
        string_val: "8.8.8.8"
        string_val: "144.217.148.116"
        string_val: "8.8.8.8"
        string_val: "8.8.8.8"
        string_val: "144.217.148.116"
        string_val: "8.8.8.8"
        string_val: "8.8.8.8"
        string_val: "157.138.81.67"
        string_val: "8.8.8.8"
        string_val: "8.8.8.8"
        string_val: "157.138.81.67"
        string_val: "157.138.81.67"
        string_val: "8.8.8.8"
        string_val: "8.8.8.8"
        string_val: "157.138.81.67"
        string_val: "8.8.8.8"
        string_val: "8.8.8.8"
        string_val: "157.138.81.67"
        string_val: "8.8.8.8"
        string_val: "8.8.8.8"
        string_val: "157.138.81.67"
        string_val: "8.8.8.8"
        string_val: "157.138.81.67"
        string_val: "231.202.190.238"
        string_val: "8.8.8.8"
        string_val: "8.8.8.8"
        string_val: "8.8.8.8"
        string_val: "8.8.8.8"
        string_val: "157.138.81.67"
        string_val: "231.202.190.238"
        string_val: "8.8.8.8"
        string_val: "231.202.190.238"
        string_val: "8.8.8.8"
        string_val: "231.202.190.238"
        string_val: "8.8.8.8"
        string_val: "8.8.8.8"
        string_val: "231.202.190.238"
        string_val: "8.8.8.8"
        string_val: "8.8.8.8"
        string_val: "164.99.221.244"
        string_val: "8.8.8.8"
        string_val: "8.8.8.8"
        string_val: "164.99.221.244"
        string_val: "164.99.221.244"
        string_val: "8.8.8.8"
        string_val: "8.8.8.8"
        string_val: "164.99.221.244"
        string_val: "8.8.8.8"
        string_val: "8.8.8.8"
        string_val: "236.160.65.124"
        string_val: "8.8.8.8"
        string_val: "8.8.8.8"
        string_val: "236.160.65.124"
        string_val: "236.160.65.124"
        string_val: "8.8.8.8"
        string_val: "236.160.65.124"
        string_val: "8.8.8.8"
        string_val: "8.8.8.8"
        string_val: "236.160.65.124"
        string_val: "8.8.8.8"
        string_val: "8.8.8.8"
        string_val: "132.235.100.222"
        string_val: "8.8.8.8"
        string_val: "8.8.8.8"
        string_val: "132.235.100.222"
        string_val: "8.8.8.8"
        string_val: "132.235.100.222"
        string_val: "164.99.221.244"
        string_val: "8.8.8.8"
        string_val: "8.8.8.8"
        string_val: "8.8.8.8"
        string_val: "8.8.8.8"
        string_val: "132.235.100.222"
        string_val: "164.99.221.244"
        string_val: "8.8.8.8"
        string_val: "164.99.221.244"
        string_val: "8.8.8.8"
        string_val: "8.8.8.8"
        string_val: "236.184.142.142"
        string_val: "8.8.8.8"
        string_val: "164.99.221.244"
        string_val: "8.8.8.8"
        string_val: "207.224.237.111"
        string_val: "8.8.8.8"
        string_val: "8.8.8.8"
        string_val: "8.8.8.8"
        string_val: "8.8.8.8"
        string_val: "236.184.142.142"
        string_val: "8.8.8.8"
        string_val: "164.99.221.244"
        string_val: "236.184.142.142"
        string_val: "207.224.237.111"
        string_val: "8.8.8.8"
        string_val: "8.8.8.8"
        string_val: "207.224.237.111"
        string_val: "8.8.8.8"
        string_val: "8.8.8.8"
        string_val: "236.184.142.142"
        string_val: "207.224.237.111"
        string_val: "8.8.8.8"
        string_val: "8.8.8.8"
        string_val: "8.8.8.8"
        string_val: "207.224.237.111"
        string_val: "8.8.8.8"
        string_val: "8.8.8.8"
        string_val: "200.172.194.148"
        string_val: "8.8.8.8"
        string_val: "8.8.8.8"
        string_val: "8.8.8.8"
        string_val: "51.200.214.254"
        string_val: "200.172.194.148"
        string_val: "8.8.8.8"
        string_val: "200.172.194.148"
        string_val: "8.8.8.8"
        string_val: "8.8.8.8"
        string_val: "51.200.214.254"
        string_val: "200.172.194.148"
        string_val: "51.200.214.254"
        string_val: "8.8.8.8"
        string_val: "8.8.8.8"
        string_val: "8.8.8.8"
        string_val: "8.8.8.8"
        string_val: "200.172.194.148"
        string_val: "51.200.214.254"
        string_val: "8.8.8.8"
        string_val: "8.8.8.8"
        string_val: "8.8.8.8"
        string_val: "173.146.222.255"
        string_val: "8.8.8.8"
        string_val: "8.8.8.8"
        string_val: "173.146.222.255"
        string_val: "173.146.222.255"
        string_val: "8.8.8.8"
        string_val: "173.146.222.255"
        string_val: "8.8.8.8"
        string_val: "8.8.8.8"
        string_val: "8.8.8.8"
        string_val: "173.146.222.255"
        string_val: "225.21.62.105"
        string_val: "8.8.8.8"
        string_val: "8.8.8.8"
        string_val: "8.8.8.8"
        string_val: "225.21.62.105"
        string_val: "225.21.62.105"
        string_val: "8.8.8.8"
        string_val: "8.8.8.8"
        string_val: "225.21.62.105"
        string_val: "8.8.8.8"
        string_val: "8.8.8.8"
        string_val: "138.57.93.24"
        string_val: "8.8.8.8"
        string_val: "8.8.8.8"
        string_val: "138.57.93.24"
        string_val: "138.57.93.24"
        string_val: "8.8.8.8"
        string_val: "8.8.8.8"
        string_val: "138.57.93.24"
        string_val: "8.8.8.8"
        string_val: "8.8.8.8"
        string_val: "8.8.8.8"
        string_val: "8.8.8.8"
        string_val: "8.8.8.8"
        string_val: "8.8.8.8"
        string_val: "8.8.8.8"
        string_val: "8.8.8.8"
        string_val: "8.8.8.8"
        string_val: "8.8.8.8"
        string_val: "8.8.8.8"
        string_val: "8.8.8.8"
        string_val: "8.8.8.8"
        string_val: "8.8.8.8"
        string_val: "8.8.8.8"
        string_val: "8.8.8.8"
        string_val: "8.8.8.8"
        string_val: "8.8.8.8"
        string_val: "8.8.8.8"
        string_val: "8.8.8.8"
        string_val: "8.8.8.8"
        string_val: "8.8.8.8"
        string_val: "8.8.8.8"
        string_val: "8.8.8.8"
        string_val: "8.8.8.8"
        string_val: "8.8.8.8"
        string_val: "8.8.8.8"
        string_val: "8.8.8.8"
        string_val: "8.8.8.8"
        string_val: "8.8.8.8"
        string_val: "8.8.8.8"
        string_val: "8.8.8.8"
        string_val: "8.8.8.8"
        string_val: "8.8.8.8"
        string_val: "8.8.8.8"
        string_val: "8.8.8.8"
        string_val: "8.8.8.8"
        string_val: "8.8.8.8"
        string_val: "8.8.8.8"
        string_val: "8.8.8.8"
        string_val: "8.8.8.8"
        string_val: "8.8.8.8"
        string_val: "8.8.8.8"
        string_val: "8.8.8.8"
        string_val: "8.8.8.8"
        string_val: "8.8.8.8"
        string_val: "8.8.8.8"
        string_val: "8.8.8.8"
        string_val: "8.8.8.8"
        string_val: "8.8.8.8"
        string_val: "8.8.8.8"
        string_val: "8.8.8.8"
        string_val: "8.8.8.8"
        string_val: "8.8.8.8"
        string_val: "8.8.8.8"
        string_val: "8.8.8.8"
        string_val: "8.8.8.8"
        string_val: "8.8.8.8"
        string_val: "8.8.8.8"
        string_val: "8.8.8.8"
        string_val: "8.8.8.8"
        string_val: "8.8.8.8"
        string_val: "8.8.8.8"
        string_val: "8.8.8.8"
        string_val: "8.8.8.8"
        string_val: "8.8.8.8"
        string_val: "8.8.8.8"
        string_val: "8.8.8.8"
        string_val: "8.8.8.8"
        string_val: "8.8.8.8"
        string_val: "8.8.8.8"
        string_val: "8.8.8.8"
        string_val: "8.8.8.8"
        string_val: "8.8.8.8"
        string_val: "8.8.8.8"
        string_val: "8.8.8.8"
        string_val: "8.8.8.8"
        string_val: "8.8.8.8"
        string_val: "8.8.8.8"
        string_val: "8.8.8.8"
        string_val: "8.8.8.8"
        string_val: "8.8.8.8"
        string_val: "8.8.8.8"
        string_val: "8.8.8.8"
        string_val: "8.8.8.8"
        string_val: "8.8.8.8"
        string_val: "8.8.8.8"
        string_val: "8.8.8.8"
        string_val: "8.8.8.8"
        string_val: "8.8.8.8"
        string_val: "8.8.8.8"
        string_val: "8.8.8.8"
        string_val: "8.8.8.8"
        string_val: "8.8.8.8"
        string_val: "8.8.8.8"
        string_val: "8.8.8.8"
        string_val: "8.8.8.8"
        string_val: "8.8.8.8"
        string_val: "8.8.8.8"
        string_val: "8.8.8.8"
        string_val: "8.8.8.8"
        string_val: "8.8.8.8"
        string_val: "8.8.8.8"
        string_val: "8.8.8.8"
        string_val: "8.8.8.8"
        string_val: "8.8.8.8"
        string_val: "8.8.8.8"
        string_val: "8.8.8.8"
        string_val: "8.8.8.8"
        string_val: "8.8.8.8"
        string_val: "8.8.8.8"
        string_val: "8.8.8.8"
        string_val: "8.8.8.8"
        string_val: "8.8.8.8"
        string_val: "8.8.8.8"
        string_val: "8.8.8.8"
        string_val: "8.8.8.8"
        string_val: "8.8.8.8"
        string_val: "8.8.8.8"
        string_val: "8.8.8.8"
        string_val: "8.8.8.8"
        string_val: "8.8.8.8"
        string_val: "8.8.8.8"
        string_val: "8.8.8.8"
        string_val: "8.8.8.8"
        string_val: "8.8.8.8"
        string_val: "8.8.8.8"
        string_val: "8.8.8.8"
        string_val: "8.8.8.8"
        string_val: "8.8.8.8"
        string_val: "8.8.8.8"
        string_val: "8.8.8.8"
        string_val: "8.8.8.8"
        string_val: "8.8.8.8"
        string_val: "8.8.8.8"
        string_val: "8.8.8.8"
        string_val: "8.8.8.8"
        string_val: "8.8.8.8"
        string_val: "8.8.8.8"
        string_val: "8.8.8.8"
        string_val: "8.8.8.8"
        string_val: "8.8.8.8"
        string_val: "8.8.8.8"
        string_val: "8.8.8.8"
        string_val: "8.8.8.8"
        string_val: "8.8.8.8"
        string_val: "8.8.8.8"
        string_val: "8.8.8.8"
        string_val: "8.8.8.8"
        string_val: "8.8.8.8"
        string_val: "8.8.8.8"
        string_val: "8.8.8.8"
        string_val: "8.8.8.8"
        string_val: "8.8.8.8"
        string_val: "8.8.8.8"
        string_val: "8.8.8.8"
        string_val: "8.8.8.8"
        string_val: "8.8.8.8"
        string_val: "8.8.8.8"
        string_val: "8.8.8.8"
        string_val: "8.8.8.8"
        string_val: "8.8.8.8"
        string_val: "8.8.8.8"
        string_val: "8.8.8.8"
        string_val: "8.8.8.8"
        string_val: "8.8.8.8"
        string_val: "8.8.8.8"
        string_val: "8.8.8.8"
        string_val: "8.8.8.8"
        string_val: "8.8.8.8"
        string_val: "8.8.8.8"
        string_val: "8.8.8.8"
        string_val: "8.8.8.8"
        string_val: "8.8.8.8"
        string_val: "8.8.8.8"
        string_val: "8.8.8.8"
        string_val: "8.8.8.8"
        string_val: "8.8.8.8"
        string_val: "8.8.8.8"
        string_val: "8.8.8.8"
        string_val: "8.8.8.8"
        string_val: "8.8.8.8"
        string_val: "8.8.8.8"
        string_val: "8.8.8.8"
        string_val: "8.8.8.8"
        string_val: "8.8.8.8"
        string_val: "8.8.8.8"
        string_val: "8.8.8.8"
        string_val: "8.8.8.8"
        string_val: "8.8.8.8"
        string_val: "8.8.8.8"
        string_val: "8.8.8.8"
        string_val: "8.8.8.8"
        string_val: "8.8.8.8"
        string_val: "8.8.8.8"
        string_val: "8.8.8.8"
        string_val: "8.8.8.8"
        string_val: "8.8.8.8"
        string_val: "8.8.8.8"
        string_val: "8.8.8.8"
        string_val: "8.8.8.8"
        string_val: "8.8.8.8"
        string_val: "8.8.8.8"
        string_val: "8.8.8.8"
        string_val: "8.8.8.8"
        string_val: "8.8.8.8"
        string_val: "8.8.8.8"
        string_val: "8.8.8.8"
        string_val: "8.8.8.8"
        string_val: "8.8.8.8"
        string_val: "8.8.8.8"
        string_val: "8.8.8.8"
        string_val: "8.8.8.8"
        string_val: "8.8.8.8"
        string_val: "8.8.8.8"
        string_val: "8.8.8.8"
        string_val: "8.8.8.8"
        string_val: "8.8.8.8"
        string_val: "8.8.8.8"
        string_val: "8.8.8.8"
        string_val: "8.8.8.8"
        string_val: "8.8.8.8"
        string_val: "8.8.8.8"
        string_val: "8.8.8.8"
        string_val: "8.8.8.8"
        string_val: "8.8.8.8"
        string_val: "8.8.8.8"
        string_val: "8.8.8.8"
        string_val: "8.8.8.8"
        string_val: "8.8.8.8"
        string_val: "8.8.8.8"
        string_val: "8.8.8.8"
        string_val: "8.8.8.8"
        string_val: "8.8.8.8"
        string_val: "8.8.8.8"
        string_val: "8.8.8.8"
        string_val: "8.8.8.8"
        string_val: "8.8.8.8"
        string_val: "8.8.8.8"
        string_val: "8.8.8.8"
        string_val: "8.8.8.8"
        string_val: "8.8.8.8"
        string_val: "8.8.8.8"
        string_val: "8.8.8.8"
        string_val: "8.8.8.8"
        string_val: "8.8.8.8"
        string_val: "8.8.8.8"
        string_val: "8.8.8.8"
        string_val: "8.8.8.8"
        string_val: "8.8.8.8"
        string_val: "8.8.8.8"
        string_val: "8.8.8.8"
        string_val: "8.8.8.8"
        string_val: "8.8.8.8"
        string_val: "8.8.8.8"
        string_val: "8.8.8.8"
        string_val: "8.8.8.8"
        string_val: "8.8.8.8"
        string_val: "8.8.8.8"
        string_val: "8.8.8.8"
        string_val: "8.8.8.8"
        string_val: "8.8.8.8"
        string_val: "8.8.8.8"
        string_val: "8.8.8.8"
        string_val: "8.8.8.8"
        string_val: "8.8.8.8"
        string_val: "8.8.8.8"
        string_val: "8.8.8.8"
        string_val: "8.8.8.8"
        string_val: "8.8.8.8"
        string_val: "8.8.8.8"
        string_val: "8.8.8.8"
        string_val: "8.8.8.8"
        string_val: "8.8.8.8"
        string_val: "8.8.8.8"
        string_val: "8.8.8.8"
        string_val: "8.8.8.8"
        string_val: "8.8.8.8"
        string_val: "8.8.8.8"
        string_val: "8.8.8.8"
        string_val: "8.8.8.8"
        string_val: "8.8.8.8"
        string_val: "8.8.8.8"
        string_val: "8.8.8.8"
        string_val: "8.8.8.8"
        string_val: "8.8.8.8"
        string_val: "8.8.8.8"
        string_val: "8.8.8.8"
        string_val: "8.8.8.8"
        string_val: "8.8.8.8"
        string_val: "8.8.8.8"
        string_val: "8.8.8.8"
        string_val: "8.8.8.8"
        string_val: "8.8.8.8"
        string_val: "8.8.8.8"
        string_val: "8.8.8.8"
        string_val: "8.8.8.8"
        string_val: "8.8.8.8"
        string_val: "8.8.8.8"
        string_val: "8.8.8.8"
        string_val: "8.8.8.8"
        string_val: "8.8.8.8"
        string_val: "8.8.8.8"
        string_val: "8.8.8.8"
        string_val: "8.8.8.8"
        string_val: "8.8.8.8"
        string_val: "8.8.8.8"
        string_val: "8.8.8.8"
        string_val: "8.8.8.8"
        string_val: "8.8.8.8"
        string_val: "8.8.8.8"
        string_val: "8.8.8.8"
        string_val: "8.8.8.8"
        string_val: "8.8.8.8"
        string_val: "8.8.8.8"
        string_val: "8.8.8.8"
        string_val: "8.8.8.8"
        string_val: "8.8.8.8"
        string_val: "8.8.8.8"
        string_val: "8.8.8.8"
        string_val: "8.8.8.8"
        string_val: "8.8.8.8"
        string_val: "8.8.8.8"
        string_val: "8.8.8.8"
        string_val: "8.8.8.8"
        string_val: "8.8.8.8"
        string_val: "8.8.8.8"
        string_val: "8.8.8.8"
        string_val: "8.8.8.8"
        string_val: "8.8.8.8"
        string_val: "8.8.8.8"
        string_val: "8.8.8.8"
        string_val: "8.8.8.8"
        string_val: "8.8.8.8"
        string_val: "8.8.8.8"
        string_val: "8.8.8.8"
        string_val: "8.8.8.8"
        string_val: "8.8.8.8"
        string_val: "8.8.8.8"
        string_val: "8.8.8.8"
        string_val: "8.8.8.8"
        string_val: "8.8.8.8"
        string_val: "8.8.8.8"
        string_val: "8.8.8.8"
        string_val: "8.8.8.8"
        string_val: "8.8.8.8"
        string_val: "8.8.8.8"
        string_val: "8.8.8.8"
        string_val: "8.8.8.8"
        string_val: "8.8.8.8"
        string_val: "8.8.8.8"
        string_val: "8.8.8.8"
        string_val: "8.8.8.8"
        string_val: "8.8.8.8"
        string_val: "8.8.8.8"
        string_val: "8.8.8.8"
        string_val: "8.8.8.8"
        string_val: "8.8.8.8"
        string_val: "8.8.8.8"
        string_val: "8.8.8.8"
        string_val: "8.8.8.8"
        string_val: "8.8.8.8"
        string_val: "8.8.8.8"
        string_val: "8.8.8.8"
        string_val: "8.8.8.8"
        string_val: "8.8.8.8"
        string_val: "8.8.8.8"
        string_val: "8.8.8.8"
        string_val: "8.8.8.8"
        string_val: "8.8.8.8"
        string_val: "8.8.8.8"
        string_val: "8.8.8.8"
        string_val: "8.8.8.8"
        string_val: "8.8.8.8"
        string_val: "8.8.8.8"
        string_val: "8.8.8.8"
        string_val: "8.8.8.8"
        string_val: "8.8.8.8"
        string_val: "8.8.8.8"
        string_val: "8.8.8.8"
        string_val: "8.8.8.8"
        string_val: "8.8.8.8"
        string_val: "8.8.8.8"
        string_val: "8.8.8.8"
        string_val: "8.8.8.8"
        string_val: "8.8.8.8"
        string_val: "8.8.8.8"
        string_val: "8.8.8.8"
        string_val: "8.8.8.8"
        string_val: "8.8.8.8"
        string_val: "8.8.8.8"
        string_val: "8.8.8.8"
        string_val: "8.8.8.8"
        string_val: "8.8.8.8"
        string_val: "8.8.8.8"
        string_val: "8.8.8.8"
        string_val: "8.8.8.8"
        string_val: "8.8.8.8"
        string_val: "8.8.8.8"
        string_val: "8.8.8.8"
        string_val: "8.8.8.8"
        string_val: "8.8.8.8"
        string_val: "8.8.8.8"
        string_val: "8.8.8.8"
        string_val: "8.8.8.8"
        string_val: "8.8.8.8"
        string_val: "8.8.8.8"
        string_val: "8.8.8.8"
        string_val: "8.8.8.8"
        string_val: "8.8.8.8"
        string_val: "8.8.8.8"
        string_val: "8.8.8.8"
        string_val: "8.8.8.8"
        string_val: "8.8.8.8"
        string_val: "8.8.8.8"
        string_val: "8.8.8.8"
        string_val: "8.8.8.8"
        string_val: "8.8.8.8"
        string_val: "8.8.8.8"
        string_val: "8.8.8.8"
        string_val: "8.8.8.8"
        string_val: "8.8.8.8"
        string_val: "8.8.8.8"
        string_val: "8.8.8.8"
        string_val: "8.8.8.8"
        string_val: "8.8.8.8"
        string_val: "8.8.8.8"
        string_val: "8.8.8.8"
        string_val: "8.8.8.8"
        string_val: "8.8.8.8"
        string_val: "8.8.8.8"
        string_val: "8.8.8.8"
        string_val: "8.8.8.8"
        string_val: "8.8.8.8"
        string_val: "8.8.8.8"
        string_val: "8.8.8.8"
        string_val: "8.8.8.8"
        string_val: "8.8.8.8"
        string_val: "8.8.8.8"
        string_val: "8.8.8.8"
        string_val: "8.8.8.8"
        string_val: "8.8.8.8"
        string_val: "8.8.8.8"
        string_val: "8.8.8.8"
        string_val: "8.8.8.8"
        string_val: "8.8.8.8"
        string_val: "8.8.8.8"
        string_val: "8.8.8.8"
        string_val: "8.8.8.8"
        string_val: "8.8.8.8"
        string_val: "8.8.8.8"
        string_val: "8.8.8.8"
        string_val: "8.8.8.8"
        string_val: "8.8.8.8"
        string_val: "8.8.8.8"
        string_val: "8.8.8.8"
        string_val: "8.8.8.8"
        string_val: "8.8.8.8"
        string_val: "8.8.8.8"
        string_val: "8.8.8.8"
        string_val: "8.8.8.8"
        string_val: "8.8.8.8"
        string_val: "8.8.8.8"
        string_val: "8.8.8.8"
        string_val: "8.8.8.8"
        string_val: "8.8.8.8"
        string_val: "8.8.8.8"
        string_val: "8.8.8.8"
        string_val: "8.8.8.8"
        string_val: "8.8.8.8"
        string_val: "8.8.8.8"
        string_val: "8.8.8.8"
        string_val: "8.8.8.8"
        string_val: "8.8.8.8"
        string_val: "8.8.8.8"
        string_val: "8.8.8.8"
        string_val: "8.8.8.8"
        string_val: "8.8.8.8"
        string_val: "8.8.8.8"
        string_val: "8.8.8.8"
        string_val: "8.8.8.8"
        string_val: "8.8.8.8"
        string_val: "8.8.8.8"
        string_val: "8.8.8.8"
        string_val: "8.8.8.8"
        string_val: "8.8.8.8"
        string_val: "8.8.8.8"
        string_val: "8.8.8.8"
        string_val: "8.8.8.8"
        string_val: "8.8.8.8"
        string_val: "8.8.8.8"
        string_val: "8.8.8.8"
        string_val: "8.8.8.8"
        string_val: "8.8.8.8"
        string_val: "8.8.8.8"
        string_val: "8.8.8.8"
        string_val: "8.8.8.8"
        string_val: "8.8.8.8"
        string_val: "8.8.8.8"
        string_val: "8.8.8.8"
        string_val: "8.8.8.8"
        string_val: "8.8.8.8"
        string_val: "8.8.8.8"
        string_val: "8.8.8.8"
        string_val: "8.8.8.8"
        string_val: "8.8.8.8"
        string_val: "8.8.8.8"
        string_val: "8.8.8.8"
        string_val: "8.8.8.8"
        string_val: "8.8.8.8"
        string_val: "8.8.8.8"
        string_val: "8.8.8.8"
        string_val: "8.8.8.8"
        string_val: "8.8.8.8"
        string_val: "8.8.8.8"
        string_val: "8.8.8.8"
        string_val: "8.8.8.8"
        string_val: "8.8.8.8"
        string_val: "8.8.8.8"
        string_val: "8.8.8.8"
        string_val: "8.8.8.8"
        string_val: "8.8.8.8"
        string_val: "8.8.8.8"
        string_val: "8.8.8.8"
        string_val: "8.8.8.8"
        string_val: "8.8.8.8"
        string_val: "8.8.8.8"
        string_val: "8.8.8.8"
        string_val: "8.8.8.8"
        string_val: "8.8.8.8"
        string_val: "8.8.8.8"
        string_val: "8.8.8.8"
        string_val: "8.8.8.8"
        string_val: "8.8.8.8"
        string_val: "8.8.8.8"
        string_val: "8.8.8.8"
        string_val: "8.8.8.8"
        string_val: "8.8.8.8"
        string_val: "8.8.8.8"
        string_val: "8.8.8.8"
        string_val: "8.8.8.8"
        string_val: "8.8.8.8"
        string_val: "8.8.8.8"
        string_val: "8.8.8.8"
        string_val: "8.8.8.8"
        string_val: "8.8.8.8"
        string_val: "8.8.8.8"
        string_val: "8.8.8.8"
        string_val: "8.8.8.8"
        string_val: "8.8.8.8"
        string_val: "8.8.8.8"
        string_val: "8.8.8.8"
        string_val: "8.8.8.8"
        string_val: "8.8.8.8"
        string_val: "8.8.8.8"
        string_val: "8.8.8.8"
        string_val: "8.8.8.8"
        string_val: "8.8.8.8"
        string_val: "8.8.8.8"
        string_val: "8.8.8.8"
        string_val: "8.8.8.8"
        string_val: "8.8.8.8"
        string_val: "8.8.8.8"
        string_val: "8.8.8.8"
        string_val: "8.8.8.8"
        string_val: "8.8.8.8"
        string_val: "8.8.8.8"
        string_val: "8.8.8.8"
        string_val: "8.8.8.8"
        string_val: "8.8.8.8"
        string_val: "8.8.8.8"
        string_val: "8.8.8.8"
        string_val: "8.8.8.8"
        string_val: "8.8.8.8"
        string_val: "8.8.8.8"
        string_val: "8.8.8.8"
        string_val: "8.8.8.8"
        string_val: "8.8.8.8"
        string_val: "8.8.8.8"
        string_val: "8.8.8.8"
        string_val: "8.8.8.8"
        string_val: "8.8.8.8"
        string_val: "8.8.8.8"
        string_val: "8.8.8.8"
        string_val: "8.8.8.8"
        string_val: "8.8.8.8"
        string_val: "8.8.8.8"
        string_val: "8.8.8.8"
        string_val: "8.8.8.8"
        string_val: "8.8.8.8"
        string_val: "8.8.8.8"
        string_val: "8.8.8.8"
        string_val: "8.8.8.8"
        string_val: "8.8.8.8"
        string_val: "8.8.8.8"
        string_val: "8.8.8.8"
        string_val: "8.8.8.8"
        string_val: "8.8.8.8"
        string_val: "8.8.8.8"
        string_val: "8.8.8.8"
        string_val: "75.174.24.168"
        string_val: "8.8.8.8"
        string_val: "8.8.8.8"
        string_val: "8.8.8.8"
        string_val: "136.82.2.68"
        string_val: "75.174.24.168"
        string_val: "8.8.8.8"
        string_val: "75.174.24.168"
        string_val: "8.8.8.8"
        string_val: "8.8.8.8"
        string_val: "136.82.2.68"
        string_val: "8.8.8.8"
        string_val: "75.174.24.168"
        string_val: "136.82.2.68"
        string_val: "126.246.156.138"
        string_val: "8.8.8.8"
        string_val: "8.8.8.8"
        string_val: "8.8.8.8"
        string_val: "8.8.8.8"
        string_val: "136.82.2.68"
        string_val: "8.8.8.8"
        string_val: "75.174.24.168"
        string_val: "8.8.8.8"
        string_val: "126.246.156.138"
        string_val: "8.8.8.8"
        string_val: "8.8.8.8"
        string_val: "126.246.156.138"
        string_val: "136.82.2.68"
        string_val: "8.8.8.8"
        string_val: "8.8.8.8"
        string_val: "8.8.8.8"
        string_val: "126.246.156.138"
        string_val: "8.8.8.8"
        string_val: "8.8.8.8"
        string_val: "8.8.8.8"
        string_val: "128.94.226.203"
        string_val: "8.8.8.8"
        string_val: "8.8.8.8"
        string_val: "128.94.226.203"
        string_val: "128.94.226.203"
        string_val: "8.8.8.8"
        string_val: "128.94.226.203"
        string_val: "8.8.8.8"
        string_val: "8.8.8.8"
        string_val: "128.94.226.203"
        string_val: "8.8.8.8"
        string_val: "8.8.8.8"
        string_val: "209.142.108.185"
        string_val: "8.8.8.8"
        string_val: "8.8.8.8"
        string_val: "209.142.108.185"
        string_val: "209.142.108.185"
        string_val: "8.8.8.8"
        string_val: "8.8.8.8"
        string_val: "209.142.108.185"
        string_val: "8.8.8.8"
        string_val: "8.8.8.8"
        string_val: "67.21.239.91"
        string_val: "8.8.8.8"
        string_val: "8.8.8.8"
        string_val: "67.21.239.91"
        string_val: "67.21.239.91"
        string_val: "8.8.8.8"
        string_val: "67.21.239.91"
        string_val: "8.8.8.8"
        string_val: "8.8.8.8"
        string_val: "67.21.239.91"
        string_val: "8.8.8.8"
        string_val: "8.8.8.8"
        string_val: "198.101.34.98"
        string_val: "8.8.8.8"
        string_val: "8.8.8.8"
        string_val: "8.8.8.8"
        string_val: "198.101.34.98"
        string_val: "128.94.226.203"
        string_val: "198.101.34.98"
        string_val: "8.8.8.8"
        string_val: "8.8.8.8"
        string_val: "8.8.8.8"
        string_val: "8.8.8.8"
        string_val: "128.94.226.203"
        string_val: "198.101.34.98"
        string_val: "128.94.226.203"
        string_val: "8.8.8.8"
        string_val: "8.8.8.8"
        string_val: "128.94.226.203"
        string_val: "8.8.8.8"
        string_val: "8.8.8.8"
        string_val: "128.94.226.203"
        string_val: "8.8.8.8"
        string_val: "8.8.8.8"
        string_val: "189.135.144.48"
        string_val: "8.8.8.8"
        string_val: "8.8.8.8"
        string_val: "189.135.144.48"
        string_val: "189.135.144.48"
        string_val: "8.8.8.8"
        string_val: "189.135.144.48"
        string_val: "8.8.8.8"
        string_val: "8.8.8.8"
        string_val: "189.135.144.48"
        string_val: "8.8.8.8"
        string_val: "8.8.8.8"
        string_val: "109.34.221.239"
        string_val: "8.8.8.8"
        string_val: "8.8.8.8"
        string_val: "109.34.221.239"
        string_val: "109.34.221.239"
        string_val: "8.8.8.8"
        string_val: "109.34.221.239"
        string_val: "8.8.8.8"
        string_val: "8.8.8.8"
        string_val: "109.34.221.239"
        string_val: "8.8.8.8"
        string_val: "8.8.8.8"
        string_val: "187.218.17.65"
        string_val: "8.8.8.8"
        string_val: "8.8.8.8"
        string_val: "187.218.17.65"
        string_val: "187.218.17.65"
        string_val: "8.8.8.8"
        string_val: "187.218.17.65"
        string_val: "8.8.8.8"
        string_val: "8.8.8.8"
        string_val: "187.218.17.65"
        string_val: "8.8.8.8"
        string_val: "8.8.8.8"
…
    key: "value"
    value {
      tensor {
        dtype: DT_INT32
        tensor_shape {
          dim {
            size: 1
          }
        }
        int_val: 0
      }
    }
  }
}
node {
  name: "report_uninitialized_variables_1/boolean_mask/strided_slice/stack_1"
  op: "Const"
  device: "/device:CPU:0"
  attr {
    key: "_output_shapes"
    value {
      list {
        shape {
          dim {
            size: 1
          }
        }
      }
    }
  }
  attr {
    key: "dtype"
    value {
      type: DT_INT32
    }
  }
  attr {
    key: "value"
    value {
      tensor {
        dtype: DT_INT32
        tensor_shape {
          dim {
            size: 1
          }
        }
        int_val: 1
      }
    }
  }
}
node {
  name: "report_uninitialized_variables_1/boolean_mask/strided_slice/stack_2"
  op: "Const"
  device: "/device:CPU:0"
  attr {
    key: "_output_shapes"
    value {
      list {
        shape {
          dim {
            size: 1
          }
        }
      }
    }
  }
  attr {
    key: "dtype"
    value {
      type: DT_INT32
    }
  }
  attr {
    key: "value"
    value {
      tensor {
        dtype: DT_INT32
        tensor_shape {
          dim {
            size: 1
          }
        }
        int_val: 1
      }
    }
  }
}
node {
  name: "report_uninitialized_variables_1/boolean_mask/strided_slice"
  op: "StridedSlice"
  input: "report_uninitialized_variables_1/boolean_mask/Shape"
  input: "report_uninitialized_variables_1/boolean_mask/strided_slice/stack"
  input: "report_uninitialized_variables_1/boolean_mask/strided_slice/stack_1"
  input: "report_uninitialized_variables_1/boolean_mask/strided_slice/stack_2"
  device: "/device:CPU:0"
  attr {
    key: "Index"
    value {
      type: DT_INT32
    }
  }
  attr {
    key: "T"
    value {
      type: DT_INT32
    }
  }
  attr {
    key: "_output_shapes"
    value {
      list {
        shape {
          dim {
            size: 1
          }
        }
      }
    }
  }
  attr {
    key: "begin_mask"
    value {
      i: 0
    }
  }
  attr {
    key: "ellipsis_mask"
    value {
      i: 0
    }
  }
  attr {
    key: "end_mask"
    value {
      i: 0
    }
  }
  attr {
    key: "new_axis_mask"
    value {
      i: 0
    }
  }
  attr {
    key: "shrink_axis_mask"
    value {
      i: 0
    }
  }
}
node {
  name: "report_uninitialized_variables_1/boolean_mask/Prod/reduction_indices"
  op: "Const"
  device: "/device:CPU:0"
  attr {
    key: "_output_shapes"
    value {
      list {
        shape {
          dim {
            size: 1
          }
        }
      }
    }
  }
  attr {
    key: "dtype"
    value {
      type: DT_INT32
    }
  }
  attr {
    key: "value"
    value {
      tensor {
        dtype: DT_INT32
        tensor_shape {
          dim {
            size: 1
          }
        }
        int_val: 0
      }
    }
  }
}
node {
  name: "report_uninitialized_variables_1/boolean_mask/Prod"
  op: "Prod"
  input: "report_uninitialized_variables_1/boolean_mask/strided_slice"
  input: "report_uninitialized_variables_1/boolean_mask/Prod/reduction_indices"
  device: "/device:CPU:0"
  attr {
    key: "T"
    value {
      type: DT_INT32
    }
  }
  attr {
    key: "Tidx"
    value {
      type: DT_INT32
    }
  }
  attr {
    key: "_output_shapes"
    value {
      list {
        shape {
        }
      }
    }
  }
  attr {
    key: "keep_dims"
    value {
      b: false
    }
  }
}
node {
  name: "report_uninitialized_variables_1/boolean_mask/Shape_1"
  op: "Const"
  device: "/device:CPU:0"
  attr {
    key: "_output_shapes"
    value {
      list {
        shape {
          dim {
            size: 1
          }
        }
      }
    }
  }
  attr {
    key: "dtype"
    value {
      type: DT_INT32
    }
  }
  attr {
    key: "value"
    value {
      tensor {
        dtype: DT_INT32
        tensor_shape {
          dim {
            size: 1
          }
        }
        int_val: 25
      }
    }
  }
}
node {
  name: "report_uninitialized_variables_1/boolean_mask/strided_slice_1/stack"
  op: "Const"
  device: "/device:CPU:0"
  attr {
    key: "_output_shapes"
    value {
      list {
        shape {
          dim {
            size: 1
          }
        }
      }
    }
  }
  attr {
    key: "dtype"
    value {
      type: DT_INT32
    }
  }
  attr {
    key: "value"
    value {
      tensor {
        dtype: DT_INT32
        tensor_shape {
          dim {
            size: 1
          }
        }
        int_val: 0
      }
    }
  }
}
node {
  name: "report_uninitialized_variables_1/boolean_mask/strided_slice_1/stack_1"
  op: "Const"
  device: "/device:CPU:0"
  attr {
    key: "_output_shapes"
    value {
      list {
        shape {
          dim {
            size: 1
          }
        }
      }
    }
  }
  attr {
    key: "dtype"
    value {
      type: DT_INT32
    }
  }
  attr {
    key: "value"
    value {
      tensor {
        dtype: DT_INT32
        tensor_shape {
          dim {
            size: 1
          }
        }
        int_val: 0
      }
    }
  }
}
node {
  name: "report_uninitialized_variables_1/boolean_mask/strided_slice_1/stack_2"
  op: "Const"
  device: "/device:CPU:0"
  attr {
    key: "_output_shapes"
    value {
      list {
        shape {
          dim {
            size: 1
          }
        }
      }
    }
  }
  attr {
    key: "dtype"
    value {
      type: DT_INT32
    }
  }
  attr {
    key: "value"
    value {
      tensor {
        dtype: DT_INT32
        tensor_shape {
          dim {
            size: 1
          }
        }
        int_val: 1
      }
    }
  }
}
node {
  name: "report_uninitialized_variables_1/boolean_mask/strided_slice_1"
  op: "StridedSlice"
  input: "report_uninitialized_variables_1/boolean_mask/Shape_1"
  input: "report_uninitialized_variables_1/boolean_mask/strided_slice_1/stack"
  input: "report_uninitialized_variables_1/boolean_mask/strided_slice_1/stack_1"
  input: "report_uninitialized_variables_1/boolean_mask/strided_slice_1/stack_2"
  device: "/device:CPU:0"
  attr {
    key: "Index"
    value {
      type: DT_INT32
    }
  }
  attr {
    key: "T"
    value {
      type: DT_INT32
    }
  }
  attr {
    key: "_output_shapes"
    value {
      list {
        shape {
          dim {
          }
        }
      }
    }
  }
  attr {
    key: "begin_mask"
    value {
      i: 1
    }
  }
  attr {
    key: "ellipsis_mask"
    value {
      i: 0
    }
  }
  attr {
    key: "end_mask"
    value {
      i: 0
    }
  }
  attr {
    key: "new_axis_mask"
    value {
      i: 0
    }
  }
  attr {
    key: "shrink_axis_mask"
    value {
      i: 0
    }
  }
}
node {
  name: "report_uninitialized_variables_1/boolean_mask/Shape_2"
  op: "Const"
  device: "/device:CPU:0"
  attr {
    key: "_output_shapes"
    value {
      list {
        shape {
          dim {
            size: 1
          }
        }
      }
    }
  }
  attr {
    key: "dtype"
    value {
      type: DT_INT32
    }
  }
  attr {
    key: "value"
    value {
      tensor {
        dtype: DT_INT32
        tensor_shape {
          dim {
            size: 1
          }
        }
        int_val: 25
      }
    }
  }
}
node {
  name: "report_uninitialized_variables_1/boolean_mask/strided_slice_2/stack"
  op: "Const"
  device: "/device:CPU:0"
  attr {
    key: "_output_shapes"
    value {
      list {
        shape {
          dim {
            size: 1
          }
        }
      }
    }
  }
  attr {
    key: "dtype"
    value {
      type: DT_INT32
    }
  }
  attr {
    key: "value"
    value {
      tensor {
        dtype: DT_INT32
        tensor_shape {
          dim {
            size: 1
          }
        }
        int_val: 1
      }
    }
  }
}
node {
  name: "report_uninitialized_variables_1/boolean_mask/strided_slice_2/stack_1"
  op: "Const"
  device: "/device:CPU:0"
  attr {
    key: "_output_shapes"
    value {
      list {
        shape {
          dim {
            size: 1
          }
        }
      }
    }
  }
  attr {
    key: "dtype"
    value {
      type: DT_INT32
    }
  }
  attr {
    key: "value"
    value {
      tensor {
        dtype: DT_INT32
        tensor_shape {
          dim {
            size: 1
          }
        }
        int_val: 0
      }
    }
  }
}
node {
  name: "report_uninitialized_variables_1/boolean_mask/strided_slice_2/stack_2"
  op: "Const"
  device: "/device:CPU:0"
  attr {
    key: "_output_shapes"
    value {
      list {
        shape {
          dim {
            size: 1
          }
        }
      }
    }
  }
  attr {
    key: "dtype"
    value {
      type: DT_INT32
    }
  }
  attr {
    key: "value"
    value {
      tensor {
        dtype: DT_INT32
        tensor_shape {
          dim {
            size: 1
          }
        }
        int_val: 1
      }
    }
  }
}
node {
  name: "report_uninitialized_variables_1/boolean_mask/strided_slice_2"
  op: "StridedSlice"
  input: "report_uninitialized_variables_1/boolean_mask/Shape_2"
  input: "report_uninitialized_variables_1/boolean_mask/strided_slice_2/stack"
  input: "report_uninitialized_variables_1/boolean_mask/strided_slice_2/stack_1"
  input: "report_uninitialized_variables_1/boolean_mask/strided_slice_2/stack_2"
  device: "/device:CPU:0"
  attr {
    key: "Index"
    value {
      type: DT_INT32
    }
  }
  attr {
    key: "T"
    value {
      type: DT_INT32
    }
  }
  attr {
    key: "_output_shapes"
    value {
      list {
        shape {
          dim {
          }
        }
      }
    }
  }
  attr {
    key: "begin_mask"
    value {
      i: 0
    }
  }
  attr {
    key: "ellipsis_mask"
    value {
      i: 0
    }
  }
  attr {
    key: "end_mask"
    value {
      i: 1
    }
  }
  attr {
    key: "new_axis_mask"
    value {
      i: 0
    }
  }
  attr {
    key: "shrink_axis_mask"
    value {
      i: 0
    }
  }
}
node {
  name: "report_uninitialized_variables_1/boolean_mask/concat/values_1"
  op: "Pack"
  input: "report_uninitialized_variables_1/boolean_mask/Prod"
  device: "/device:CPU:0"
  attr {
    key: "N"
    value {
      i: 1
    }
  }
  attr {
    key: "T"
    value {
      type: DT_INT32
    }
  }
  attr {
    key: "_output_shapes"
    value {
      list {
        shape {
          dim {
            size: 1
          }
        }
      }
    }
  }
  attr {
    key: "axis"
    value {
      i: 0
    }
  }
}
node {
  name: "report_uninitialized_variables_1/boolean_mask/concat/axis"
  op: "Const"
  device: "/device:CPU:0"
  attr {
    key: "_output_shapes"
    value {
      list {
        shape {
        }
      }
    }
  }
  attr {
    key: "dtype"
    value {
      type: DT_INT32
    }
  }
  attr {
    key: "value"
    value {
      tensor {
        dtype: DT_INT32
        tensor_shape {
        }
        int_val: 0
      }
    }
  }
}
node {
  name: "report_uninitialized_variables_1/boolean_mask/concat"
  op: "ConcatV2"
  input: "report_uninitialized_variables_1/boolean_mask/strided_slice_1"
  input: "report_uninitialized_variables_1/boolean_mask/concat/values_1"
  input: "report_uninitialized_variables_1/boolean_mask/strided_slice_2"
  input: "report_uninitialized_variables_1/boolean_mask/concat/axis"
  device: "/device:CPU:0"
  attr {
    key: "N"
    value {
      i: 3
    }
  }
  attr {
    key: "T"
    value {
      type: DT_INT32
    }
  }
  attr {
    key: "Tidx"
    value {
      type: DT_INT32
    }
  }
  attr {
    key: "_output_shapes"
    value {
      list {
        shape {
          dim {
            size: 1
          }
        }
      }
    }
  }
}
node {
  name: "report_uninitialized_variables_1/boolean_mask/Reshape"
  op: "Reshape"
  input: "report_uninitialized_variables_1/Const"
  input: "report_uninitialized_variables_1/boolean_mask/concat"
  device: "/device:CPU:0"
  attr {
    key: "T"
    value {
      type: DT_STRING
    }
  }
  attr {
    key: "Tshape"
    value {
      type: DT_INT32
    }
  }
  attr {
    key: "_output_shapes"
    value {
      list {
        shape {
          dim {
            size: 25
          }
        }
      }
    }
  }
}
node {
  name: "report_uninitialized_variables_1/boolean_mask/Reshape_1/shape"
  op: "Const"
  device: "/device:CPU:0"
  attr {
    key: "_output_shapes"
    value {
      list {
        shape {
          dim {
            size: 1
          }
        }
      }
    }
  }
  attr {
    key: "dtype"
    value {
      type: DT_INT32
    }
  }
  attr {
    key: "value"
    value {
      tensor {
        dtype: DT_INT32
        tensor_shape {
          dim {
            size: 1
          }
        }
        int_val: -1
      }
    }
  }
}
node {
  name: "report_uninitialized_variables_1/boolean_mask/Reshape_1"
  op: "Reshape"
  input: "report_uninitialized_variables_1/LogicalNot"
  input: "report_uninitialized_variables_1/boolean_mask/Reshape_1/shape"
  device: "/device:CPU:0"
  attr {
    key: "T"
    value {
      type: DT_BOOL
    }
  }
  attr {
    key: "Tshape"
    value {
      type: DT_INT32
    }
  }
  attr {
    key: "_output_shapes"
    value {
      list {
        shape {
          dim {
            size: 25
          }
        }
      }
    }
  }
}
node {
  name: "report_uninitialized_variables_1/boolean_mask/Where"
  op: "Where"
  input: "report_uninitialized_variables_1/boolean_mask/Reshape_1"
  device: "/device:CPU:0"
  attr {
    key: "T"
    value {
      type: DT_BOOL
    }
  }
  attr {
    key: "_output_shapes"
    value {
      list {
        shape {
          dim {
            size: -1
          }
          dim {
            size: 1
          }
        }
      }
    }
  }
}
node {
  name: "report_uninitialized_variables_1/boolean_mask/Squeeze"
  op: "Squeeze"
  input: "report_uninitialized_variables_1/boolean_mask/Where"
  device: "/device:CPU:0"
  attr {
    key: "T"
    value {
      type: DT_INT64
    }
  }
  attr {
    key: "_output_shapes"
    value {
      list {
        shape {
          dim {
            size: -1
          }
        }
      }
    }
  }
  attr {
    key: "squeeze_dims"
    value {
      list {
        i: 1
      }
    }
  }
}
node {
  name: "report_uninitialized_variables_1/boolean_mask/Gather"
  op: "Gather"
  input: "report_uninitialized_variables_1/boolean_mask/Reshape"
  input: "report_uninitialized_variables_1/boolean_mask/Squeeze"
  device: "/device:CPU:0"
  attr {
    key: "Tindices"
    value {
      type: DT_INT64
    }
  }
  attr {
    key: "Tparams"
    value {
      type: DT_STRING
    }
  }
  attr {
    key: "_output_shapes"
    value {
      list {
        shape {
          dim {
            size: -1
          }
        }
      }
    }
  }
  attr {
    key: "validate_indices"
    value {
      b: true
    }
  }
}
node {
  name: "init_2"
  op: "NoOp"
}
node {
  name: "init_all_tables"
  op: "NoOp"
  input: "^dnn/head/predictions/class_string_lookup/table_init"
  input: "^dnn/head/class_id_lookup/hash_table/table_init"
}
node {
  name: "init_3"
  op: "NoOp"
}
node {
  name: "group_deps_1"
  op: "NoOp"
  input: "^init_2"
  input: "^init_all_tables"
  input: "^init_3"
}
node {
  name: "Merge/MergeSummary"
  op: "MergeSummary"
  input: "dnn/dnn/hiddenlayer_0/fraction_of_zero_values"
  input: "dnn/dnn/hiddenlayer_0/activation"
  input: "dnn/dnn/hiddenlayer_1/fraction_of_zero_values"
  input: "dnn/dnn/hiddenlayer_1/activation"
  input: "dnn/dnn/hiddenlayer_2/fraction_of_zero_values"
  input: "dnn/dnn/hiddenlayer_2/activation"
  input: "dnn/dnn/logits/fraction_of_zero_values"
  input: "dnn/dnn/logits/activation"
  input: "loss"
  input: "average_loss"
  attr {
    key: "N"
    value {
      i: 10
    }
  }
  attr {
    key: "_output_shapes"
    value {
      list {
        shape {
        }
      }
    }
  }
}
node {
  name: "save/Const"
  op: "Const"
  attr {
    key: "_output_shapes"
    value {
      list {
        shape {
        }
      }
    }
  }
  attr {
    key: "dtype"
    value {
      type: DT_STRING
    }
  }
  attr {
    key: "value"
    value {
      tensor {
        dtype: DT_STRING
        tensor_shape {
        }
        string_val: "model"
      }
    }
  }
}
node {
  name: "save/StringJoin/inputs_1"
  op: "Const"
  attr {
    key: "_output_shapes"
    value {
      list {
        shape {
        }
      }
    }
  }
  attr {
    key: "dtype"
    value {
      type: DT_STRING
    }
  }
  attr {
    key: "value"
    value {
      tensor {
        dtype: DT_STRING
        tensor_shape {
        }
        string_val: "_temp_649a8fe6361b4610b3d6f5a0c2c79828/part"
      }
    }
  }
}
node {
  name: "save/StringJoin"
  op: "StringJoin"
  input: "save/Const"
  input: "save/StringJoin/inputs_1"
  attr {
    key: "N"
    value {
      i: 2
    }
  }
  attr {
    key: "_output_shapes"
    value {
      list {
        shape {
        }
      }
    }
  }
  attr {
    key: "separator"
    value {
      s: ""
    }
  }
}
node {
  name: "save/num_shards"
  op: "Const"
  attr {
    key: "_output_shapes"
    value {
      list {
        shape {
        }
      }
    }
  }
  attr {
    key: "dtype"
    value {
      type: DT_INT32
    }
  }
  attr {
    key: "value"
    value {
      tensor {
        dtype: DT_INT32
        tensor_shape {
        }
        int_val: 1
      }
    }
  }
}
node {
  name: "save/ShardedFilename/shard"
  op: "Const"
  device: "/device:CPU:0"
  attr {
    key: "_output_shapes"
    value {
      list {
        shape {
        }
      }
    }
  }
  attr {
    key: "dtype"
    value {
      type: DT_INT32
    }
  }
  attr {
    key: "value"
    value {
      tensor {
        dtype: DT_INT32
        tensor_shape {
        }
        int_val: 0
      }
    }
  }
}
node {
  name: "save/ShardedFilename"
  op: "ShardedFilename"
  input: "save/StringJoin"
  input: "save/ShardedFilename/shard"
  input: "save/num_shards"
  device: "/device:CPU:0"
  attr {
    key: "_output_shapes"
    value {
      list {
        shape {
        }
      }
    }
  }
}
node {
  name: "save/SaveV2/tensor_names"
  op: "Const"
  device: "/device:CPU:0"
  attr {
    key: "_output_shapes"
    value {
      list {
        shape {
          dim {
            size: 25
          }
        }
      }
    }
  }
  attr {
    key: "dtype"
    value {
      type: DT_STRING
    }
  }
  attr {
    key: "value"
    value {
      tensor {
        dtype: DT_STRING
        tensor_shape {
          dim {
            size: 25
          }
        }
        string_val: "dnn/hiddenlayer_0/bias"
        string_val: "dnn/hiddenlayer_0/bias/t_0/Adagrad"
        string_val: "dnn/hiddenlayer_0/kernel"
        string_val: "dnn/hiddenlayer_0/kernel/t_0/Adagrad"
        string_val: "dnn/hiddenlayer_1/bias"
        string_val: "dnn/hiddenlayer_1/bias/t_0/Adagrad"
        string_val: "dnn/hiddenlayer_1/kernel"
        string_val: "dnn/hiddenlayer_1/kernel/t_0/Adagrad"
        string_val: "dnn/hiddenlayer_2/bias"
        string_val: "dnn/hiddenlayer_2/bias/t_0/Adagrad"
        string_val: "dnn/hiddenlayer_2/kernel"
        string_val: "dnn/hiddenlayer_2/kernel/t_0/Adagrad"
        string_val: "dnn/input_from_feature_columns/input_layer/data_embedding/embedding_weights"
        string_val: "dnn/input_from_feature_columns/input_layer/data_embedding/embedding_weights/t_0/Adagrad"
        string_val: "dnn/input_from_feature_columns/input_layer/destination_ip_embedding/embedding_weights"
        string_val: "dnn/input_from_feature_columns/input_layer/destination_ip_embedding/embedding_weights/t_0/Adagrad"
        string_val: "dnn/input_from_feature_columns/input_layer/flags_embedding/embedding_weights"
        string_val: "dnn/input_from_feature_columns/input_layer/flags_embedding/embedding_weights/t_0/Adagrad"
        string_val: "dnn/input_from_feature_columns/input_layer/source_ip_embedding/embedding_weights"
        string_val: "dnn/input_from_feature_columns/input_layer/source_ip_embedding/embedding_weights/t_0/Adagrad"
        string_val: "dnn/logits/bias"
        string_val: "dnn/logits/bias/t_0/Adagrad"
        string_val: "dnn/logits/kernel"
        string_val: "dnn/logits/kernel/t_0/Adagrad"
        string_val: "global_step"
      }
    }
  }
}
node {
  name: "save/SaveV2/shape_and_slices"
  op: "Const"
  device: "/device:CPU:0"
  attr {
    key: "_output_shapes"
    value {
      list {
        shape {
          dim {
            size: 25
          }
        }
      }
    }
  }
  attr {
    key: "dtype"
    value {
      type: DT_STRING
    }
  }
  attr {
    key: "value"
    value {
      tensor {
        dtype: DT_STRING
        tensor_shape {
          dim {
            size: 25
          }
        }
        string_val: "10 0,10"
        string_val: "10 0,10"
        string_val: "204 10 0,204:0,10"
        string_val: "204 10 0,204:0,10"
        string_val: "10 0,10"
        string_val: "10 0,10"
        string_val: "10 10 0,10:0,10"
        string_val: "10 10 0,10:0,10"
        string_val: "10 0,10"
        string_val: "10 0,10"
        string_val: "10 10 0,10:0,10"
        string_val: "10 10 0,10:0,10"
        string_val: "10000 50 0,10000:0,50"
        string_val: "10000 50 0,10000:0,50"
        string_val: "10000 50 0,10000:0,50"
        string_val: "10000 50 0,10000:0,50"
        string_val: "20 50 0,20:0,50"
        string_val: "20 50 0,20:0,50"
        string_val: "10000 50 0,10000:0,50"
        string_val: "10000 50 0,10000:0,50"
        string_val: "1 0,1"
        string_val: "1 0,1"
        string_val: "10 1 0,10:0,1"
        string_val: "10 1 0,10:0,1"
        string_val: ""
      }
    }
  }
}
node {
  name: "save/SaveV2"
  op: "SaveV2"
  input: "save/ShardedFilename"
  input: "save/SaveV2/tensor_names"
  input: "save/SaveV2/shape_and_slices"
  input: "dnn/hiddenlayer_0/bias/part_0/read"
  input: "dnn/dnn/hiddenlayer_0/bias/part_0/Adagrad/read"
  input: "dnn/hiddenlayer_0/kernel/part_0/read"
  input: "dnn/dnn/hiddenlayer_0/kernel/part_0/Adagrad/read"
  input: "dnn/hiddenlayer_1/bias/part_0/read"
  input: "dnn/dnn/hiddenlayer_1/bias/part_0/Adagrad/read"
  input: "dnn/hiddenlayer_1/kernel/part_0/read"
  input: "dnn/dnn/hiddenlayer_1/kernel/part_0/Adagrad/read"
  input: "dnn/hiddenlayer_2/bias/part_0/read"
  input: "dnn/dnn/hiddenlayer_2/bias/part_0/Adagrad/read"
  input: "dnn/hiddenlayer_2/kernel/part_0/read"
  input: "dnn/dnn/hiddenlayer_2/kernel/part_0/Adagrad/read"
  input: "dnn/input_from_feature_columns/input_layer/data_embedding/embedding_weights/part_0/read"
  input: "dnn/dnn/input_from_feature_columns/input_layer/data_embedding/embedding_weights/part_0/Adagrad/read"
  input: "dnn/input_from_feature_columns/input_layer/destination_ip_embedding/embedding_weights/part_0/read"
  input: "dnn/dnn/input_from_feature_columns/input_layer/destination_ip_embedding/embedding_weights/part_0/Adagrad/read"
  input: "dnn/input_from_feature_columns/input_layer/flags_embedding/embedding_weights/part_0/read"
  input: "dnn/dnn/input_from_feature_columns/input_layer/flags_embedding/embedding_weights/part_0/Adagrad/read"
  input: "dnn/input_from_feature_columns/input_layer/source_ip_embedding/embedding_weights/part_0/read"
  input: "dnn/dnn/input_from_feature_columns/input_layer/source_ip_embedding/embedding_weights/part_0/Adagrad/read"
  input: "dnn/logits/bias/part_0/read"
  input: "dnn/dnn/logits/bias/part_0/Adagrad/read"
  input: "dnn/logits/kernel/part_0/read"
  input: "dnn/dnn/logits/kernel/part_0/Adagrad/read"
  input: "global_step"
  device: "/device:CPU:0"
  attr {
    key: "dtypes"
    value {
      list {
        type: DT_FLOAT
        type: DT_FLOAT
        type: DT_FLOAT
        type: DT_FLOAT
        type: DT_FLOAT
        type: DT_FLOAT
        type: DT_FLOAT
        type: DT_FLOAT
        type: DT_FLOAT
        type: DT_FLOAT
        type: DT_FLOAT
        type: DT_FLOAT
        type: DT_FLOAT
        type: DT_FLOAT
        type: DT_FLOAT
        type: DT_FLOAT
        type: DT_FLOAT
        type: DT_FLOAT
        type: DT_FLOAT
        type: DT_FLOAT
        type: DT_FLOAT
        type: DT_FLOAT
        type: DT_FLOAT
        type: DT_FLOAT
        type: DT_INT64
      }
    }
  }
}
node {
  name: "save/control_dependency"
  op: "Identity"
  input: "save/ShardedFilename"
  input: "^save/SaveV2"
  device: "/device:CPU:0"
  attr {
    key: "T"
    value {
      type: DT_STRING
    }
  }
  attr {
    key: "_class"
    value {
      list {
        s: "loc:@save/ShardedFilename"
      }
    }
  }
  attr {
    key: "_output_shapes"
    value {
      list {
        shape {
        }
      }
    }
  }
}
node {
  name: "save/MergeV2Checkpoints/checkpoint_prefixes"
  op: "Pack"
  input: "save/ShardedFilename"
  input: "^save/control_dependency"
  device: "/device:CPU:0"
  attr {
    key: "N"
    value {
      i: 1
    }
  }
  attr {
    key: "T"
    value {
      type: DT_STRING
    }
  }
  attr {
    key: "_output_shapes"
    value {
      list {
        shape {
          dim {
            size: 1
          }
        }
      }
    }
  }
  attr {
    key: "axis"
    value {
      i: 0
    }
  }
}
node {
  name: "save/MergeV2Checkpoints"
  op: "MergeV2Checkpoints"
  input: "save/MergeV2Checkpoints/checkpoint_prefixes"
  input: "save/Const"
  device: "/device:CPU:0"
  attr {
    key: "delete_old_dirs"
    value {
      b: true
    }
  }
}
node {
  name: "save/Identity"
  op: "Identity"
  input: "save/Const"
  input: "^save/control_dependency"
  input: "^save/MergeV2Checkpoints"
  device: "/device:CPU:0"
  attr {
    key: "T"
    value {
      type: DT_STRING
    }
  }
  attr {
    key: "_output_shapes"
    value {
      list {
        shape {
        }
      }
    }
  }
}
node {
  name: "save/RestoreV2/tensor_names"
  op: "Const"
  device: "/device:CPU:0"
  attr {
    key: "_output_shapes"
    value {
      list {
        shape {
          dim {
            size: 25
          }
        }
      }
    }
  }
  attr {
    key: "dtype"
    value {
      type: DT_STRING
    }
  }
  attr {
    key: "value"
    value {
      tensor {
        dtype: DT_STRING
        tensor_shape {
          dim {
            size: 25
          }
        }
        string_val: "dnn/hiddenlayer_0/bias"
        string_val: "dnn/hiddenlayer_0/bias/t_0/Adagrad"
        string_val: "dnn/hiddenlayer_0/kernel"
        string_val: "dnn/hiddenlayer_0/kernel/t_0/Adagrad"
        string_val: "dnn/hiddenlayer_1/bias"
        string_val: "dnn/hiddenlayer_1/bias/t_0/Adagrad"
        string_val: "dnn/hiddenlayer_1/kernel"
        string_val: "dnn/hiddenlayer_1/kernel/t_0/Adagrad"
        string_val: "dnn/hiddenlayer_2/bias"
        string_val: "dnn/hiddenlayer_2/bias/t_0/Adagrad"
        string_val: "dnn/hiddenlayer_2/kernel"
        string_val: "dnn/hiddenlayer_2/kernel/t_0/Adagrad"
        string_val: "dnn/input_from_feature_columns/input_layer/data_embedding/embedding_weights"
        string_val: "dnn/input_from_feature_columns/input_layer/data_embedding/embedding_weights/t_0/Adagrad"
        string_val: "dnn/input_from_feature_columns/input_layer/destination_ip_embedding/embedding_weights"
        string_val: "dnn/input_from_feature_columns/input_layer/destination_ip_embedding/embedding_weights/t_0/Adagrad"
        string_val: "dnn/input_from_feature_columns/input_layer/flags_embedding/embedding_weights"
        string_val: "dnn/input_from_feature_columns/input_layer/flags_embedding/embedding_weights/t_0/Adagrad"
        string_val: "dnn/input_from_feature_columns/input_layer/source_ip_embedding/embedding_weights"
        string_val: "dnn/input_from_feature_columns/input_layer/source_ip_embedding/embedding_weights/t_0/Adagrad"
        string_val: "dnn/logits/bias"
        string_val: "dnn/logits/bias/t_0/Adagrad"
        string_val: "dnn/logits/kernel"
        string_val: "dnn/logits/kernel/t_0/Adagrad"
        string_val: "global_step"
      }
    }
  }
}
node {
  name: "save/RestoreV2/shape_and_slices"
  op: "Const"
  device: "/device:CPU:0"
  attr {
    key: "_output_shapes"
    value {
      list {
        shape {
          dim {
            size: 25
          }
        }
      }
    }
  }
  attr {
    key: "dtype"
    value {
      type: DT_STRING
    }
  }
  attr {
    key: "value"
    value {
      tensor {
        dtype: DT_STRING
        tensor_shape {
          dim {
            size: 25
          }
        }
        string_val: "10 0,10"
        string_val: "10 0,10"
        string_val: "204 10 0,204:0,10"
        string_val: "204 10 0,204:0,10"
        string_val: "10 0,10"
        string_val: "10 0,10"
        string_val: "10 10 0,10:0,10"
        string_val: "10 10 0,10:0,10"
        string_val: "10 0,10"
        string_val: "10 0,10"
        string_val: "10 10 0,10:0,10"
        string_val: "10 10 0,10:0,10"
        string_val: "10000 50 0,10000:0,50"
        string_val: "10000 50 0,10000:0,50"
        string_val: "10000 50 0,10000:0,50"
        string_val: "10000 50 0,10000:0,50"
        string_val: "20 50 0,20:0,50"
        string_val: "20 50 0,20:0,50"
        string_val: "10000 50 0,10000:0,50"
        string_val: "10000 50 0,10000:0,50"
        string_val: "1 0,1"
        string_val: "1 0,1"
        string_val: "10 1 0,10:0,1"
        string_val: "10 1 0,10:0,1"
        string_val: ""
      }
    }
  }
}
node {
  name: "save/RestoreV2"
  op: "RestoreV2"
  input: "save/Const"
  input: "save/RestoreV2/tensor_names"
  input: "save/RestoreV2/shape_and_slices"
  device: "/device:CPU:0"
  attr {
    key: "_output_shapes"
    value {
      list {
        shape {
          dim {
            size: 10
          }
        }
        shape {
          dim {
            size: 10
          }
        }
        shape {
          dim {
            size: 204
          }
          dim {
            size: 10
          }
        }
        shape {
          dim {
            size: 204
          }
          dim {
            size: 10
          }
        }
        shape {
          dim {
            size: 10
          }
        }
        shape {
          dim {
            size: 10
          }
        }
        shape {
          dim {
            size: 10
          }
          dim {
            size: 10
          }
        }
        shape {
          dim {
            size: 10
          }
          dim {
            size: 10
          }
        }
        shape {
          dim {
            size: 10
          }
        }
        shape {
          dim {
            size: 10
          }
        }
        shape {
          dim {
            size: 10
          }
          dim {
            size: 10
          }
        }
        shape {
          dim {
            size: 10
          }
          dim {
            size: 10
          }
        }
        shape {
          dim {
            size: 10000
          }
          dim {
            size: 50
          }
        }
        shape {
          dim {
            size: 10000
          }
          dim {
            size: 50
          }
        }
        shape {
          dim {
            size: 10000
          }
          dim {
            size: 50
          }
        }
        shape {
          dim {
            size: 10000
          }
          dim {
            size: 50
          }
        }
        shape {
          dim {
            size: 20
          }
          dim {
            size: 50
          }
        }
        shape {
          dim {
            size: 20
          }
          dim {
            size: 50
          }
        }
        shape {
          dim {
            size: 10000
          }
          dim {
            size: 50
          }
        }
        shape {
          dim {
            size: 10000
          }
          dim {
            size: 50
          }
        }
        shape {
          dim {
            size: 1
          }
        }
        shape {
          dim {
            size: 1
          }
        }
        shape {
          dim {
            size: 10
          }
          dim {
            size: 1
          }
        }
        shape {
          dim {
            size: 10
          }
          dim {
            size: 1
          }
        }
        shape {
          unknown_rank: true
        }
      }
    }
  }
  attr {
    key: "dtypes"
    value {
      list {
        type: DT_FLOAT
        type: DT_FLOAT
        type: DT_FLOAT
        type: DT_FLOAT
        type: DT_FLOAT
        type: DT_FLOAT
        type: DT_FLOAT
        type: DT_FLOAT
        type: DT_FLOAT
        type: DT_FLOAT
        type: DT_FLOAT
        type: DT_FLOAT
        type: DT_FLOAT
        type: DT_FLOAT
        type: DT_FLOAT
        type: DT_FLOAT
        type: DT_FLOAT
        type: DT_FLOAT
        type: DT_FLOAT
        type: DT_FLOAT
        type: DT_FLOAT
        type: DT_FLOAT
        type: DT_FLOAT
        type: DT_FLOAT
        type: DT_INT64
      }
    }
  }
}
node {
  name: "save/Assign"
  op: "Assign"
  input: "dnn/hiddenlayer_0/bias/part_0"
  input: "save/RestoreV2"
  attr {
    key: "T"
    value {
      type: DT_FLOAT
    }
  }
  attr {
    key: "_class"
    value {
      list {
        s: "loc:@dnn/hiddenlayer_0/bias/part_0"
      }
    }
  }
  attr {
    key: "_output_shapes"
    value {
      list {
        shape {
          dim {
            size: 10
          }
        }
      }
    }
  }
  attr {
    key: "use_locking"
    value {
      b: true
    }
  }
  attr {
    key: "validate_shape"
    value {
      b: true
    }
  }
}
node {
  name: "save/Assign_1"
  op: "Assign"
  input: "dnn/dnn/hiddenlayer_0/bias/part_0/Adagrad"
  input: "save/RestoreV2:1"
  attr {
    key: "T"
    value {
      type: DT_FLOAT
    }
  }
  attr {
    key: "_class"
    value {
      list {
        s: "loc:@dnn/hiddenlayer_0/bias/part_0"
      }
    }
  }
  attr {
    key: "_output_shapes"
    value {
      list {
        shape {
          dim {
            size: 10
          }
        }
      }
    }
  }
  attr {
    key: "use_locking"
    value {
      b: true
    }
  }
  attr {
    key: "validate_shape"
    value {
      b: true
    }
  }
}
node {
  name: "save/Assign_2"
  op: "Assign"
  input: "dnn/hiddenlayer_0/kernel/part_0"
  input: "save/RestoreV2:2"
  attr {
    key: "T"
    value {
      type: DT_FLOAT
    }
  }
  attr {
    key: "_class"
    value {
      list {
        s: "loc:@dnn/hiddenlayer_0/kernel/part_0"
      }
    }
  }
  attr {
    key: "_output_shapes"
    value {
      list {
        shape {
          dim {
            size: 204
          }
          dim {
            size: 10
          }
        }
      }
    }
  }
  attr {
    key: "use_locking"
    value {
      b: true
    }
  }
  attr {
    key: "validate_shape"
    value {
      b: true
    }
  }
}
node {
  name: "save/Assign_3"
  op: "Assign"
  input: "dnn/dnn/hiddenlayer_0/kernel/part_0/Adagrad"
  input: "save/RestoreV2:3"
  attr {
    key: "T"
    value {
      type: DT_FLOAT
    }
  }
  attr {
    key: "_class"
    value {
      list {
        s: "loc:@dnn/hiddenlayer_0/kernel/part_0"
      }
    }
  }
  attr {
    key: "_output_shapes"
    value {
      list {
        shape {
          dim {
            size: 204
          }
          dim {
            size: 10
          }
        }
      }
    }
  }
  attr {
    key: "use_locking"
    value {
      b: true
    }
  }
  attr {
    key: "validate_shape"
    value {
      b: true
    }
  }
}
node {
  name: "save/Assign_4"
  op: "Assign"
  input: "dnn/hiddenlayer_1/bias/part_0"
  input: "save/RestoreV2:4"
  attr {
    key: "T"
    value {
      type: DT_FLOAT
    }
  }
  attr {
    key: "_class"
    value {
      list {
        s: "loc:@dnn/hiddenlayer_1/bias/part_0"
      }
    }
  }
  attr {
    key: "_output_shapes"
    value {
      list {
        shape {
          dim {
            size: 10
          }
        }
      }
    }
  }
  attr {
    key: "use_locking"
    value {
      b: true
    }
  }
  attr {
    key: "validate_shape"
    value {
      b: true
    }
  }
}
node {
  name: "save/Assign_5"
  op: "Assign"
  input: "dnn/dnn/hiddenlayer_1/bias/part_0/Adagrad"
  input: "save/RestoreV2:5"
  attr {
    key: "T"
    value {
      type: DT_FLOAT
    }
  }
  attr {
    key: "_class"
    value {
      list {
        s: "loc:@dnn/hiddenlayer_1/bias/part_0"
      }
    }
  }
  attr {
    key: "_output_shapes"
    value {
      list {
        shape {
          dim {
            size: 10
          }
        }
      }
    }
  }
  attr {
    key: "use_locking"
    value {
      b: true
    }
  }
  attr {
    key: "validate_shape"
    value {
      b: true
    }
  }
}
node {
  name: "save/Assign_6"
  op: "Assign"
  input: "dnn/hiddenlayer_1/kernel/part_0"
  input: "save/RestoreV2:6"
  attr {
    key: "T"
    value {
      type: DT_FLOAT
    }
  }
  attr {
    key: "_class"
    value {
      list {
        s: "loc:@dnn/hiddenlayer_1/kernel/part_0"
      }
    }
  }
  attr {
    key: "_output_shapes"
    value {
      list {
        shape {
          dim {
            size: 10
          }
          dim {
            size: 10
          }
        }
      }
    }
  }
  attr {
    key: "use_locking"
    value {
      b: true
    }
  }
  attr {
    key: "validate_shape"
    value {
      b: true
    }
  }
}
node {
  name: "save/Assign_7"
  op: "Assign"
  input: "dnn/dnn/hiddenlayer_1/kernel/part_0/Adagrad"
  input: "save/RestoreV2:7"
  attr {
    key: "T"
    value {
      type: DT_FLOAT
    }
  }
  attr {
    key: "_class"
    value {
      list {
        s: "loc:@dnn/hiddenlayer_1/kernel/part_0"
      }
    }
  }
  attr {
    key: "_output_shapes"
    value {
      list {
        shape {
          dim {
            size: 10
          }
          dim {
            size: 10
          }
        }
      }
    }
  }
  attr {
    key: "use_locking"
    value {
      b: true
    }
  }
  attr {
    key: "validate_shape"
    value {
      b: true
    }
  }
}
node {
  name: "save/Assign_8"
  op: "Assign"
  input: "dnn/hiddenlayer_2/bias/part_0"
  input: "save/RestoreV2:8"
  attr {
    key: "T"
    value {
      type: DT_FLOAT
    }
  }
  attr {
    key: "_class"
    value {
      list {
        s: "loc:@dnn/hiddenlayer_2/bias/part_0"
      }
    }
  }
  attr {
    key: "_output_shapes"
    value {
      list {
        shape {
          dim {
            size: 10
          }
        }
      }
    }
  }
  attr {
    key: "use_locking"
    value {
      b: true
    }
  }
  attr {
    key: "validate_shape"
    value {
      b: true
    }
  }
}
node {
  name: "save/Assign_9"
  op: "Assign"
  input: "dnn/dnn/hiddenlayer_2/bias/part_0/Adagrad"
  input: "save/RestoreV2:9"
  attr {
    key: "T"
    value {
      type: DT_FLOAT
    }
  }
  attr {
    key: "_class"
    value {
      list {
        s: "loc:@dnn/hiddenlayer_2/bias/part_0"
      }
    }
  }
  attr {
    key: "_output_shapes"
    value {
      list {
        shape {
          dim {
            size: 10
          }
        }
      }
    }
  }
  attr {
    key: "use_locking"
    value {
      b: true
    }
  }
  attr {
    key: "validate_shape"
    value {
      b: true
    }
  }
}
node {
  name: "save/Assign_10"
  op: "Assign"
  input: "dnn/hiddenlayer_2/kernel/part_0"
  input: "save/RestoreV2:10"
  attr {
    key: "T"
    value {
      type: DT_FLOAT
    }
  }
  attr {
    key: "_class"
    value {
      list {
        s: "loc:@dnn/hiddenlayer_2/kernel/part_0"
      }
    }
  }
  attr {
    key: "_output_shapes"
    value {
      list {
        shape {
          dim {
            size: 10
          }
          dim {
            size: 10
          }
        }
      }
    }
  }
  attr {
    key: "use_locking"
    value {
      b: true
    }
  }
  attr {
    key: "validate_shape"
    value {
      b: true
    }
  }
}
node {
  name: "save/Assign_11"
  op: "Assign"
  input: "dnn/dnn/hiddenlayer_2/kernel/part_0/Adagrad"
  input: "save/RestoreV2:11"
  attr {
    key: "T"
    value {
      type: DT_FLOAT
    }
  }
  attr {
    key: "_class"
    value {
      list {
        s: "loc:@dnn/hiddenlayer_2/kernel/part_0"
      }
    }
  }
  attr {
    key: "_output_shapes"
    value {
      list {
        shape {
          dim {
            size: 10
          }
          dim {
            size: 10
          }
        }
      }
    }
  }
  attr {
    key: "use_locking"
    value {
      b: true
    }
  }
  attr {
    key: "validate_shape"
    value {
      b: true
    }
  }
}
node {
  name: "save/Assign_12"
  op: "Assign"
  input: "dnn/input_from_feature_columns/input_layer/data_embedding/embedding_weights/part_0"
  input: "save/RestoreV2:12"
  attr {
    key: "T"
    value {
      type: DT_FLOAT
    }
  }
  attr {
    key: "_class"
    value {
      list {
        s: "loc:@dnn/input_from_feature_columns/input_layer/data_embedding/embedding_weights/part_0"
      }
    }
  }
  attr {
    key: "_output_shapes"
    value {
      list {
        shape {
          dim {
            size: 10000
          }
          dim {
            size: 50
          }
        }
      }
    }
  }
  attr {
    key: "use_locking"
    value {
      b: true
    }
  }
  attr {
    key: "validate_shape"
    value {
      b: true
    }
  }
}
node {
  name: "save/Assign_13"
  op: "Assign"
  input: "dnn/dnn/input_from_feature_columns/input_layer/data_embedding/embedding_weights/part_0/Adagrad"
  input: "save/RestoreV2:13"
  attr {
    key: "T"
    value {
      type: DT_FLOAT
    }
  }
  attr {
    key: "_class"
    value {
      list {
        s: "loc:@dnn/input_from_feature_columns/input_layer/data_embedding/embedding_weights/part_0"
      }
    }
  }
  attr {
    key: "_output_shapes"
    value {
      list {
        shape {
          dim {
            size: 10000
          }
          dim {
            size: 50
          }
        }
      }
    }
  }
  attr {
    key: "use_locking"
    value {
      b: true
    }
  }
  attr {
    key: "validate_shape"
    value {
      b: true
    }
  }
}
node {
  name: "save/Assign_14"
  op: "Assign"
  input: "dnn/input_from_feature_columns/input_layer/destination_ip_embedding/embedding_weights/part_0"
  input: "save/RestoreV2:14"
  attr {
    key: "T"
    value {
      type: DT_FLOAT
    }
  }
  attr {
    key: "_class"
    value {
      list {
        s: "loc:@dnn/input_from_feature_columns/input_layer/destination_ip_embedding/embedding_weights/part_0"
      }
    }
  }
  attr {
    key: "_output_shapes"
    value {
      list {
        shape {
          dim {
            size: 10000
          }
          dim {
            size: 50
          }
        }
      }
    }
  }
  attr {
    key: "use_locking"
    value {
      b: true
    }
  }
  attr {
    key: "validate_shape"
    value {
      b: true
    }
  }
}
node {
  name: "save/Assign_15"
  op: "Assign"
  input: "dnn/dnn/input_from_feature_columns/input_layer/destination_ip_embedding/embedding_weights/part_0/Adagrad"
  input: "save/RestoreV2:15"
  attr {
    key: "T"
    value {
      type: DT_FLOAT
    }
  }
  attr {
    key: "_class"
    value {
      list {
        s: "loc:@dnn/input_from_feature_columns/input_layer/destination_ip_embedding/embedding_weights/part_0"
      }
    }
  }
  attr {
    key: "_output_shapes"
    value {
      list {
        shape {
          dim {
            size: 10000
          }
          dim {
            size: 50
          }
        }
      }
    }
  }
  attr {
    key: "use_locking"
    value {
      b: true
    }
  }
  attr {
    key: "validate_shape"
    value {
      b: true
    }
  }
}
node {
  name: "save/Assign_16"
  op: "Assign"
  input: "dnn/input_from_feature_columns/input_layer/flags_embedding/embedding_weights/part_0"
  input: "save/RestoreV2:16"
  attr {
    key: "T"
    value {
      type: DT_FLOAT
    }
  }
  attr {
    key: "_class"
    value {
      list {
        s: "loc:@dnn/input_from_feature_columns/input_layer/flags_embedding/embedding_weights/part_0"
      }
    }
  }
  attr {
    key: "_output_shapes"
    value {
      list {
        shape {
          dim {
            size: 20
          }
          dim {
            size: 50
          }
        }
      }
    }
  }
  attr {
    key: "use_locking"
    value {
      b: true
    }
  }
  attr {
    key: "validate_shape"
    value {
      b: true
    }
  }
}
node {
  name: "save/Assign_17"
  op: "Assign"
  input: "dnn/dnn/input_from_feature_columns/input_layer/flags_embedding/embedding_weights/part_0/Adagrad"
  input: "save/RestoreV2:17"
  attr {
    key: "T"
    value {
      type: DT_FLOAT
    }
  }
  attr {
    key: "_class"
    value {
      list {
        s: "loc:@dnn/input_from_feature_columns/input_layer/flags_embedding/embedding_weights/part_0"
      }
    }
  }
  attr {
    key: "_output_shapes"
    value {
      list {
        shape {
          dim {
            size: 20
          }
          dim {
            size: 50
          }
        }
      }
    }
  }
  attr {
    key: "use_locking"
    value {
      b: true
    }
  }
  attr {
    key: "validate_shape"
    value {
      b: true
    }
  }
}
node {
  name: "save/Assign_18"
  op: "Assign"
  input: "dnn/input_from_feature_columns/input_layer/source_ip_embedding/embedding_weights/part_0"
  input: "save/RestoreV2:18"
  attr {
    key: "T"
    value {
      type: DT_FLOAT
    }
  }
  attr {
    key: "_class"
    value {
      list {
        s: "loc:@dnn/input_from_feature_columns/input_layer/source_ip_embedding/embedding_weights/part_0"
      }
    }
  }
  attr {
    key: "_output_shapes"
    value {
      list {
        shape {
          dim {
            size: 10000
          }
          dim {
            size: 50
          }
        }
      }
    }
  }
  attr {
    key: "use_locking"
    value {
      b: true
    }
  }
  attr {
    key: "validate_shape"
    value {
      b: true
    }
  }
}
node {
  name: "save/Assign_19"
  op: "Assign"
  input: "dnn/dnn/input_from_feature_columns/input_layer/source_ip_embedding/embedding_weights/part_0/Adagrad"
  input: "save/RestoreV2:19"
  attr {
    key: "T"
    value {
      type: DT_FLOAT
    }
  }
  attr {
    key: "_class"
    value {
      list {
        s: "loc:@dnn/input_from_feature_columns/input_layer/source_ip_embedding/embedding_weights/part_0"
      }
    }
  }
  attr {
    key: "_output_shapes"
    value {
      list {
        shape {
          dim {
            size: 10000
          }
          dim {
            size: 50
          }
        }
      }
    }
  }
  attr {
    key: "use_locking"
    value {
      b: true
    }
  }
  attr {
    key: "validate_shape"
    value {
      b: true
    }
  }
}
node {
  name: "save/Assign_20"
  op: "Assign"
  input: "dnn/logits/bias/part_0"
  input: "save/RestoreV2:20"
  attr {
    key: "T"
    value {
      type: DT_FLOAT
    }
  }
  attr {
    key: "_class"
    value {
      list {
        s: "loc:@dnn/logits/bias/part_0"
      }
    }
  }
  attr {
    key: "_output_shapes"
    value {
      list {
        shape {
          dim {
            size: 1
          }
        }
      }
    }
  }
  attr {
    key: "use_locking"
    value {
      b: true
    }
  }
  attr {
    key: "validate_shape"
    value {
      b: true
    }
  }
}
node {
  name: "save/Assign_21"
  op: "Assign"
  input: "dnn/dnn/logits/bias/part_0/Adagrad"
  input: "save/RestoreV2:21"
  attr {
    key: "T"
    value {
      type: DT_FLOAT
    }
  }
  attr {
    key: "_class"
    value {
      list {
        s: "loc:@dnn/logits/bias/part_0"
      }
    }
  }
  attr {
    key: "_output_shapes"
    value {
      list {
        shape {
          dim {
            size: 1
          }
        }
      }
    }
  }
  attr {
    key: "use_locking"
    value {
      b: true
    }
  }
  attr {
    key: "validate_shape"
    value {
      b: true
    }
  }
}
node {
  name: "save/Assign_22"
  op: "Assign"
  input: "dnn/logits/kernel/part_0"
  input: "save/RestoreV2:22"
  attr {
    key: "T"
    value {
      type: DT_FLOAT
    }
  }
  attr {
    key: "_class"
    value {
      list {
        s: "loc:@dnn/logits/kernel/part_0"
      }
    }
  }
  attr {
    key: "_output_shapes"
    value {
      list {
        shape {
          dim {
            size: 10
          }
          dim {
            size: 1
          }
        }
      }
    }
  }
  attr {
    key: "use_locking"
    value {
      b: true
    }
  }
  attr {
    key: "validate_shape"
    value {
      b: true
    }
  }
}
node {
  name: "save/Assign_23"
  op: "Assign"
  input: "dnn/dnn/logits/kernel/part_0/Adagrad"
  input: "save/RestoreV2:23"
  attr {
    key: "T"
    value {
      type: DT_FLOAT
    }
  }
  attr {
    key: "_class"
    value {
      list {
        s: "loc:@dnn/logits/kernel/part_0"
      }
    }
  }
  attr {
    key: "_output_shapes"
    value {
      list {
        shape {
          dim {
            size: 10
          }
          dim {
            size: 1
          }
        }
      }
    }
  }
  attr {
    key: "use_locking"
    value {
      b: true
    }
  }
  attr {
    key: "validate_shape"
    value {
      b: true
    }
  }
}
node {
  name: "save/Assign_24"
  op: "Assign"
  input: "global_step"
  input: "save/RestoreV2:24"
  attr {
    key: "T"
    value {
      type: DT_INT64
    }
  }
  attr {
    key: "_class"
    value {
      list {
        s: "loc:@global_step"
      }
    }
  }
  attr {
    key: "_output_shapes"
    value {
      list {
        shape {
        }
      }
    }
  }
  attr {
    key: "use_locking"
    value {
      b: true
    }
  }
  attr {
    key: "validate_shape"
    value {
      b: true
    }
  }
}
node {
  name: "save/restore_shard"
  op: "NoOp"
  input: "^save/Assign"
  input: "^save/Assign_1"
  input: "^save/Assign_2"
  input: "^save/Assign_3"
  input: "^save/Assign_4"
  input: "^save/Assign_5"
  input: "^save/Assign_6"
  input: "^save/Assign_7"
  input: "^save/Assign_8"
  input: "^save/Assign_9"
  input: "^save/Assign_10"
  input: "^save/Assign_11"
  input: "^save/Assign_12"
  input: "^save/Assign_13"
  input: "^save/Assign_14"
  input: "^save/Assign_15"
  input: "^save/Assign_16"
  input: "^save/Assign_17"
  input: "^save/Assign_18"
  input: "^save/Assign_19"
  input: "^save/Assign_20"
  input: "^save/Assign_21"
  input: "^save/Assign_22"
  input: "^save/Assign_23"
  input: "^save/Assign_24"
}
node {
  name: "save/restore_all"
  op: "NoOp"
  input: "^save/restore_shard"
}
versions {
  producer: 26
}
